model.tflite (tflite, 44020 bytes, 8 tensors)

arith.constant f4 [26, 64]
0	0x3d585cd1	0.05282289
1	0xbf34fd21	-0.70698744
2	0xbd4bc77a	-0.049750783
3	0xbf077bfe	-0.5292357
4	0xbec45756	-0.38347882
5	0xbf9c07a2	-1.2189829
6	0xbdee82dd	-0.11646054
7	0x3d38e3c0	0.045139074
8	0x3cc0f46b	0.023554048
9	0x3e913e60	0.283679
10	0xbd8e571b	-0.06950208
11	0x3bf81b39	0.0075716046
12	0x3e934faf	0.2877173
13	0xbe6271df	-0.22113751
14	0x3e0428e6	0.12906227
15	0x3e88f9eb	0.26753172
16	0x3e5e3a61	0.21701957
17	0xbe865522	-0.26236826
18	0x3d91025c	0.07080528
19	0xbf858419	-1.0430938
20	0xbeec3724	-0.4613582
21	0x3de2fff6	0.11083977
22	0xbd19274e	-0.037391
23	0xbcc90998	-0.024540707
24	0x3e56243a	0.20912257
25	0xbf3cd39f	-0.7376041
26	0xbf890c7c	-1.0706935
27	0x3e056356	0.13026175
28	0xbee29c7b	-0.4426001
29	0xbe826c51	-0.25473264
30	0x3ce46b8e	0.027883317
31	0xbf764eb8	-0.96213865
32	0xbeaa8432	-0.33303982
33	0x3d31a7aa	0.043372788
34	0xbea5e55c	-0.3240155
35	0x3d98b8a5	0.07457093
36	0x3eb9e83c	0.36309993
37	0xbec02aca	-0.37532645
38	0xbff58cdc	-1.9183612
39	0x3d8fbafc	0.07018086
40	0x3e3b5164	0.18292767
41	0x3dccee7c	0.10006425
42	0xbe36e228	-0.1785971
43	0xbf0ed2f4	-0.5579064
44	0xbe62be9b	-0.22143023
45	0xbf68772d	-0.9080685
46	0xbed5482b	-0.41656622
47	0xbe1862f1	-0.14881493
48	0xbf64118f	-0.8908929
49	0x3e90b3df	0.2826223
50	0xbe2da43a	-0.16957179
51	0x3d9b56b9	0.075849004
52	0x3eac6195	0.336682
53	0x3b88cb30	0.0041746125
54	0xbe6a4bfb	-0.22880547
55	0xbec813e6	-0.3907768
56	0x3e0af990	0.13571763
57	0xbf466e5c	-0.77512145
58	0x3c6574a6	0.014004862
59	0x3df1748d	0.117898084
60	0x3e24ef47	0.16106902
61	0xbdfc9b14	-0.12334266
62	0xbea8ffd8	-0.33007693
63	0x3dcb0865	0.099137105
64	0x3caf3736	0.021388631
65	0xbe7259b4	-0.23667032
66	0x3e843f10	0.25829363
67	0x3d2716da	0.040793277
68	0xbee5a72c	-0.44854105
69	0xbf2cf8ae	-0.67566955
70	0xbdabf9e2	-0.08397271
71	0x3e37ada2	0.1793733
72	0xbea08333	-0.31350097
73	0x3e57b992	0.21066883
74	0xbe7b70f9	-0.24554814
75	0xbeaf1bb3	-0.3420082
76	0xbec7c829	-0.39019898
77	0xbefe47e3	-0.4966422
78	0x3d649991	0.055810515
79	0xbda31f22	-0.079649225
80	0xbe9e8971	-0.30964234
81	0xbd97c136	-0.07409899
82	0xbe854659	-0.26030234
83	0xbf70a918	-0.94008017
84	0xbedf3797	-0.435971
85	0xbbbbd92a	-0.005732675
86	0x3e3efd06	0.18651208
87	0x3e393e00	0.18090057
88	0x3ca3e4fa	0.020006645
89	0xbe3c85d6	-0.1841043
90	0xbf22572c	-0.63414264
91	0xbed4dcd1	-0.4157472
92	0x3c1fab48	0.0097454265
93	0x3e6ea547	0.23305236
94	0x3e7ed106	0.24884424
95	0x3cdf9398	0.027292058
96	0xbe166dfc	-0.14690393
97	0xbeb1cceb	-0.34726653
98	0xbd8adb5f	-0.06780123
99	0x3e8a224f	0.269793
100	0x3e5081ad	0.20361967
101	0xbe7a2d7f	-0.24431418
102	0x3d28339c	0.041064844
103	0xbe3dbff7	-0.1853026
104	0x3d948845	0.07252554
105	0xbed44afc	-0.4146346
106	0x3deaa236	0.114567205
107	0xbea35d9b	-0.31907353
108	0xbd22cbb3	-0.039745044
109	0xbdf002d0	-0.117192864
110	0xbf58fa4b	-0.84756917
111	0x3d820d3e	0.06350182
112	0x3e0c8da9	0.13725914
113	0x3d4936c9	0.049124513
114	0x3e48603e	0.19567963
115	0xbc4120c7	-0.0117876
116	0x3e930391	0.28713658
117	0xbe91e8d7	-0.28497955
118	0x3e80afd0	0.25134134
119	0xbe8b6215	-0.27223268
120	0xbe03aee0	-0.12859678
121	0x3d8a35fb	0.06748577
122	0x3db508de	0.08839582
123	0xbf17629a	-0.5913483
124	0xbe8b6a67	-0.27229616
125	0x3ef47f38	0.4775331
126	0x3d64e23d	0.05587982
127	0x3cc2cb11	0.02377847
128	0xbd39f2cd	-0.04539757
129	0xbedd862f	-0.43266436
130	0xbf080c75	-0.5314401
131	0x3e93989e	0.28827375
132	0xbe521048	-0.20514023
133	0x3caf2924	0.021381922
134	0x3e556b2a	0.20841661
135	0xbe372a64	-0.17887264
136	0xbcb1168a	-0.021617193
137	0x3eaa36ea	0.3324502
138	0xbefcd79e	-0.49383253
139	0x3e2746aa	0.1633555
140	0x3dcb4d8e	0.09926902
141	0xbdb96458	-0.09052342
142	0x3d08b3a1	0.033374432
143	0xbd2b8be4	-0.041881457
144	0x3eac37fd	0.33636466
145	0xbf5c7ee2	-0.8613111
146	0x3d96177d	0.07328699
147	0xbf6894ba	-0.9085194
148	0x3ea99785	0.33123413
149	0x3e2ca5d9	0.16860141
150	0x3d5dbabc	0.054133162
151	0x3d04d59f	0.032430287
152	0xbced938d	-0.029001022
153	0xbe15ff43	-0.14648156
154	0xbe0e12a0	-0.13874292
155	0x3d8131e4	0.06308344
156	0x3d1f9396	0.03895911
157	0xbd6460b7	-0.055756297
158	0xbf0f930b	-0.56083745
159	0xbe30c656	-0.17263159
160	0xbe89fda1	-0.26951316
161	0xbd30d8f2	-0.043175645
162	0x3e901a60	0.28145123
163	0xbe197d21	-0.14989139
164	0xbde7e68a	-0.11323269
165	0xbf2292f9	-0.6350551
166	0xbf41bb20	-0.75676155
167	0xbd3cece4	-0.046124354
168	0xbd583ba4	-0.052791253
169	0x3e64ed80	0.22356224
170	0xbe4b4217	-0.1984943
171	0xbe6d89d4	-0.23197109
172	0xbe7c0ba9	-0.24613823
173	0xbc4969c2	-0.012293281
174	0xbe72b499	-0.23701705
175	0xbd77eb36	-0.06052705
176	0xbfaa4934	-1.330359
177	0x3e63365e	0.22188708
178	0xbecc22aa	-0.39870197
179	0x3e6417cf	0.22274707
180	0xbe904622	-0.28178507
181	0x3d0e816c	0.034791395
182	0x3eab03d2	0.33401352
183	0xbe3a4416	-0.18190035
184	0x3d13ab73	0.03605218
185	0x3cf0a7f2	0.029376958
186	0xbe4939b7	-0.19650923
187	0xbf0fd2e0	-0.56181145
188	0x3eb0839b	0.34475407
189	0xbef18ca9	-0.47177628
190	0x3e66cbdf	0.22538708
191	0xbd1536db	-0.036429267
192	0xbed607d4	-0.41802847
193	0x3e961dac	0.29319513
194	0xbf0fd1d4	-0.5617955
195	0x3e97d6d0	0.29656076
196	0x3dc9ce5c	0.09853813
197	0xbdf2f9f8	-0.11864084
198	0xbdbeb158	-0.093111694
199	0xbf13cb56	-0.5773214
200	0xbf10a75f	-0.5650539
201	0xbd490d0f	-0.04908472
202	0xbebb71a8	-0.3661015
203	0xbfa0a0c4	-1.2549062
204	0xbe9d1d76	-0.3068654
205	0xbd960c87	-0.07326608
206	0x3e4268b0	0.18985248
207	0x3dac0056	0.083985016
208	0xbd350f9f	-0.04420435
209	0xbb147845	-0.0022654694
210	0x3f33492f	0.70033544
211	0x3db6e80a	0.08930977
212	0x3e257985	0.16159637
213	0x3c0a2869	0.008432486
214	0xbe02d7a1	-0.12777568
215	0xbe52e501	-0.2059517
216	0x3c81c6ab	0.015841803
217	0xbe4df4bb	-0.20112889
218	0x3e9e5f62	0.30932146
219	0xbe01c88d	-0.1267416
220	0x3ea59433	0.3233963
221	0x3e08540d	0.13313313
222	0xbf01c181	-0.5068589
223	0xbd0d8483	-0.0345502
224	0x3e4d1b6f	0.20029996
225	0xbe0868e9	-0.1332127
226	0x3ee0481f	0.43805024
227	0x3e5eb564	0.21748883
228	0xbfa6a3a5	-1.301869
229	0xbd9e29c1	-0.07722808
230	0xbf33877d	-0.70128614
231	0xbd90a44b	-0.070625864
232	0xbecb3fbf	-0.39697072
233	0x3e7d1585	0.2471524
234	0x3d38bf92	0.04510457
235	0x3e8ac023	0.27099714
236	0xbea927ce	-0.3303818
237	0xbef3e3bf	-0.47634694
238	0xbfeddcb1	-1.8582975
239	0x3dba79dc	0.09105274
240	0xbc0d8d4e	-0.008639647
241	0x3c006d94	0.007838625
242	0xbe5ead75	-0.21745856
243	0xbd960ce7	-0.0732668
244	0xbfa554ba	-1.2916481
245	0x3e97f305	0.29677597
246	0x3e276014	0.16345245
247	0x3cdf0cc8	0.027227774
248	0xbf135dce	-0.5756501
249	0x3e4a68eb	0.19766586
250	0x3cae3d03	0.021269327
251	0x3df452ae	0.119298324
252	0x3d919592	0.071086064
253	0x3e9fdc7a	0.31222898
254	0x3edf76fc	0.43645465
255	0xbea2b09f	-0.31775376

arith.constant1 f4 [64, 64]
0	0x3e60f110	0.21966958
1	0xbec6abae	-0.38802856
2	0xbded667a	-0.115918115
3	0xbe8d734e	-0.27627033
4	0x3f03cc5d	0.5148371
5	0xbdeafb8f	-0.11473762
6	0xbe27b65e	-0.16378161
7	0xbddef1ca	-0.10885961
8	0xba1460d6	-0.00056601816
9	0x3d85f9b9	0.065417714
10	0xbe291db2	-0.16515234
11	0xbd09e927	-0.033669617
12	0x3da6ac76	0.08138363
13	0x3dfbcf7b	0.12295433
14	0x3c7f037d	0.0155647965
15	0xbd142808	-0.03617099
16	0x3e169163	0.14703898
17	0xbe375112	-0.1790202
18	0x3d021748	0.031760484
19	0x3e09c119	0.13452567
20	0x3e082995	0.13297112
21	0xbcd9b886	-0.026577245
22	0x3e0a8a0f	0.13529228
23	0xbe8b282e	-0.27179092
24	0xbf0ed659	-0.5579582
25	0xba029db8	-0.00049826084
26	0x3e81c9ec	0.25349367
27	0xbb91b224	-0.004446285
28	0x3cc03e6b	0.023467263
29	0x3cff29b0	0.031147808
30	0xbccba668	-0.024859622
31	0x3f80c985	1.0061499
32	0xbd318592	-0.043340273
33	0xbe2f2fc8	-0.17108071
34	0xbe18eaff	-0.14933394
35	0xbddb8fee	-0.10720812
36	0xbe2d8a70	-0.16947341
37	0x3d80148e	0.062539205
38	0xbc99516a	-0.018715579
39	0x3ec7a35b	0.38991818
40	0x3e3f7621	0.18697406
41	0x3cecba25	0.028897354
42	0xbde53689	-0.111920424
43	0xbde9bdf9	-0.114131875
44	0xbd5b2cab	-0.053509396
45	0x3d46ce4d	0.048536588
46	0x3d96efde	0.0736997
47	0x3dbbc263	0.09167936
48	0x3e2a9d66	0.16661605
49	0x3cb7d500	0.022440434
50	0x3ce4eaa4	0.027943917
51	0xbe193e63	-0.14965205
52	0x3e44383c	0.19162077
53	0xbe234199	-0.15942992
54	0x3dfcbe45	0.123409785
55	0xbd7475aa	-0.059682526
56	0x3e16bdea	0.14720884
57	0xbe09fd3b	-0.13475506
58	0x3dfa49d4	0.12221113
59	0xbe39a850	-0.18130612
60	0xbc42fbdc	-0.011900868
61	0xbd5244e5	-0.051335234
62	0xbc898556	-0.016787212
63	0x3e7adfd5	0.24499448
64	0x3dcf84aa	0.101327255
65	0xbd3ea9e7	-0.04654875
66	0xbd7cb7f5	-0.061698873
67	0x3e47a764	0.19497448
68	0x3e34a495	0.17640908
69	0x3d376875	0.044777352
70	0xbe0340cf	-0.12817691
71	0xbe24e9b9	-0.16104783
72	0x3db236c2	0.087018505
73	0xbe897de6	-0.26853865
74	0xbd2a5301	-0.041583065
75	0xbdf74edc	-0.12075588
76	0x3e832d0b	0.25620303
77	0x3e15ad6e	0.1461694
78	0xbcd01127	-0.025398804
79	0xbd8fc4c6	-0.070199534
80	0x3d81b346	0.06333022
81	0xbca2e973	-0.019886708
82	0x3e0f8798	0.14016569
83	0xbd00eae2	-0.031474
84	0xbd4a0fab	-0.04933135
85	0xbdf05895	-0.11735646
86	0xbc0d8cbc	-0.008639511
87	0x3dd59ee5	0.10430697
88	0xbd0f3eb2	-0.0349719
89	0xbe475d99	-0.19469298
90	0xbd9f5452	-0.07779755
91	0xbd0acc6f	-0.03388637
92	0x3ef99c08	0.48751855
93	0x3dc396ee	0.09550272
94	0xbda66122	-0.08123995
95	0xbe325dc1	-0.17418577
96	0xbe2ea5fc	-0.17055506
97	0xbe3a9c01	-0.18223573
98	0xbdf39439	-0.118935056
99	0xbd8ca733	-0.06867828
100	0xbd9cbfa4	-0.0765374
101	0x3e0f9148	0.14020264
102	0xbe8e3065	-0.27771297
103	0xbcd34e70	-0.025794238
104	0xbe109e70	-0.14122939
105	0x3e687617	0.22701298
106	0xbe841ab1	-0.25801614
107	0x3e554d82	0.20830348
108	0x3e547810	0.20748925
109	0x3e1737ab	0.1476733
110	0x3e21ff73	0.15820102
111	0xbe674203	-0.22583775
112	0x3ebfa44b	0.37430033
113	0xbf013e6c	-0.50485873
114	0x3e10be01	0.1413498
115	0x3de700bb	0.11279436
116	0xbe087732	-0.1332672
117	0x3d2d1458	0.04225573
118	0x3d9c71a7	0.07638865
119	0x3e07eb5e	0.13273379
120	0x3e848c75	0.2588841
121	0xbe239b1a	-0.15977135
122	0xbe7b6674	-0.24550802
123	0x3eaf5c3c	0.34250057
124	0xbdc61cb1	-0.09673441
125	0xbd207e9b	-0.03918324
126	0x3e46e835	0.19424517
127	0xbe891574	-0.2677418
128	0x3e399abe	0.18125436
129	0x3db032b4	0.08603421
130	0xbe3b5bce	-0.1829674
131	0xbead0fb0	-0.3380103
132	0x3e816472	0.25271946
133	0x3da4f8ec	0.080552906
134	0xbde13ee4	-0.109983236
135	0x3e7b89fe	0.24564359
136	0xbceddaa2	-0.029034916
137	0xbe9be8da	-0.3045109
138	0xbe559fe7	-0.20861779
139	0xbe0809b6	-0.13284954
140	0xbcc1edf8	-0.023673043
141	0xbe7df8ea	-0.24801984
142	0x3c439744	0.01193792
143	0x3b36d7b6	0.002789957
144	0x3d14205f	0.036163684
145	0xbdd19fbd	-0.10235546
146	0x3da0fbe6	0.07860546
147	0xbdd93c86	-0.10607247
148	0xbebd0fcb	-0.36926112
149	0x3ea596ce	0.32341617
150	0x3cc55a49	0.024090903
151	0x3e0b9f1d	0.13634916
152	0xbda29c9b	-0.079400264
153	0x3e247144	0.16058832
154	0x3ea64518	0.3247459
155	0x3e558405	0.20851143
156	0xbcd68ca0	-0.026190102
157	0x3d994ede	0.07485746
158	0xbe1e7164	-0.15472943
159	0xbee68e38	-0.4503038
160	0x3e2f7e7e	0.17138097
161	0xbdfb35c2	-0.12266113
162	0xbe0d4997	-0.13797604
163	0x3f1cdbef	0.6127309
164	0x3e294ab3	0.16532402
165	0x3e1258b9	0.14291658
166	0xbe01ba82	-0.12668803
167	0x3e3b5ce4	0.18297154
168	0xbc9d61c8	-0.019211665
169	0x3d9bf6db	0.07615443
170	0xbe523ee0	-0.20531797
171	0x3e9fd9ff	0.31221005
172	0xbe295097	-0.16534649
173	0x3d871bc2	0.06597091
174	0xbe1c76ad	-0.15279646
175	0x3e14862c	0.14504308
176	0xbaa5da78	-0.001265361
177	0x3e258f5a	0.16167966
178	0xbd17c202	-0.037050255
179	0x3e284bcb	0.16435163
180	0x3e187f88	0.148924
181	0xbb9fa147	-0.0048715207
182	0xbe3372e5	-0.17524298
183	0xbe16abbe	-0.14713952
184	0x3eb1906a	0.34680492
185	0x3e2e98b0	0.17050433
186	0x3cb243f4	0.021760918
187	0xbd7811ea	-0.06056396
188	0x3d706c41	0.05869699
189	0x3e84f6a5	0.25969425
190	0x3e99c660	0.3003416
191	0x3d94c3a6	0.072638795
192	0x3efb6ae8	0.49105
193	0x3e1b18eb	0.15146224
194	0x3e138ea4	0.14409882
195	0x3e5c3374	0.21504003
196	0xbe7a607d	-0.2445087
197	0xbd104bad	-0.03522842
198	0xbdd4ebb2	-0.10396518
199	0x3dac32d5	0.08408133
200	0x3c8c9083	0.017158752
201	0xbe973c55	-0.29538217
202	0x3ccf371d	0.025294835
203	0xbd3c196e	-0.04592269
204	0x3eb63814	0.3558966
205	0x3ddec838	0.108780324
206	0x3dca6106	0.09881787
207	0x3e78eb34	0.24308473
208	0xbe70ae6b	-0.23504035
209	0xbd37abfd	-0.044841755
210	0x3e33f70a	0.17574707
211	0xbe219bcc	-0.15782088
212	0x3e2a2e9c	0.16619343
213	0xbe8e3421	-0.27774146
214	0xbe2c651c	-0.16835445
215	0xbe15042f	-0.14552377
216	0xbc969f89	-0.01838662
217	0xbde81c73	-0.11333551
218	0xbc198257	-0.009369454
219	0xbe0babc3	-0.1363974
220	0x3e407851	0.18795897
221	0x3d44197c	0.047875866
222	0xbda1df8d	-0.07903967
223	0xbb7ac81a	-0.0038266242
224	0xbdb98916	-0.0905935
225	0xbe6744fc	-0.22584909
226	0x3cb45c13	0.02201656
227	0x3da81c9d	0.082085826
228	0xbe57797d	-0.21042438
229	0x3e42ce29	0.19023956
230	0xbe3bda73	-0.1834505
231	0xbd6a6df3	-0.057233762
232	0x3cfbef63	0.030753797
233	0x3d93aab9	0.07210297
234	0x3e83add4	0.25718558
235	0x3d667b82	0.05627013
236	0x3de1556e	0.110026225
237	0xbe26fcde	-0.16307399
238	0x3d8c1cb6	0.06841414
239	0xbe6b4d7d	-0.22978778
240	0xbe17aba4	-0.1481157
241	0xbed84cfe	-0.4224624
242	0x3e381c62	0.17979577
243	0xbe0017e7	-0.12509118
244	0xbdef19c9	-0.1167484
245	0xbdca4ee0	-0.098783255
246	0xbd9593d4	-0.073035866
247	0x3e0da17d	0.13831134
248	0xbc195b35	-0.009360124
249	0xbc891321	-0.016732754
250	0xbcf109d0	-0.029423624
251	0xbd10faea	-0.03539554
252	0xbeb39b5f	-0.35079476
253	0xbc98cba3	-0.018651789
254	0xbd828595	-0.06373135
255	0xbe21835e	-0.15772769

arith.constant2 f4 [64, 64]
0	0x3d0e2ada	0.034708835
1	0x3e0ddcb8	0.13853729
2	0x3d8120ca	0.06305082
3	0xbcecccec	-0.028906308
4	0x3cf30ddf	0.0296697
5	0x3e74e20c	0.23914355
6	0x3dfa0fdc	0.12210056
7	0xbdb4fd21	-0.08837343
8	0xbc4d160f	-0.012517466
9	0x3e58bbf3	0.21165447
10	0xbddec66d	-0.108776905
11	0x3d7afc46	0.061275743
12	0xbcabded8	-0.020980284
13	0x3e9e0d2e	0.3086943
14	0xbcdfb8e1	-0.027309837
15	0x3e2931ff	0.16522978
16	0x3c3e96d0	0.011632636
17	0xbe138ba1	-0.14408733
18	0x3e605700	0.21908188
19	0x3cab8970	0.020939559
20	0x3dfed642	0.1244321
21	0x3e0b5ce2	0.1360965
22	0xbe1edc6b	-0.1551377
23	0xbe00e758	-0.1258825
24	0xbe36ac43	-0.1783915
25	0xbf2b737c	-0.6697309
26	0xbdaa1da6	-0.08306436
27	0xbec09f7a	-0.3762167
28	0x3e8bbefc	0.27294147
29	0x3e386a27	0.18009244
30	0xbe1ac7a6	-0.15115222
31	0x3dda261e	0.106518015
32	0xbc57abad	-0.013163489
33	0xbdb74216	-0.08948152
34	0x3da40db1	0.08010424
35	0x3e1ff006	0.15618905
36	0xbd933bfc	-0.071891755
37	0xbd836ea7	-0.0641759
38	0xbdf51800	-0.11967468
39	0x3e9312bd	0.28725234
40	0xbe365ee6	-0.17809638
41	0x3de38e56	0.11111133
42	0xbd5cf3d0	-0.053943455
43	0x3dbd37d0	0.09239161
44	0x3dcca38e	0.09992133
45	0xbce93c60	-0.028471172
46	0x3e4bfc8e	0.1992056
47	0x3d1c91d4	0.03822501
48	0xbdab53d0	-0.08365595
49	0x3dcca6e5	0.0999277
50	0xbb3f5664	-0.002919578
51	0x3e4961a3	0.19666152
52	0x3e00e85f	0.12588643
53	0x3c1477d6	0.009061774
54	0xbe677c35	-0.22605975
55	0xbe7230bd	-0.23651405
56	0xbe9eba17	-0.3100135
57	0x3d93bdb3	0.07213917
58	0xbc0298f0	-0.007971033
59	0x3e107271	0.14106156
60	0x3dcf7a66	0.101307675
61	0xbe1983c3	-0.1499167
62	0xbe5c6ffc	-0.21527094
63	0xbf06cd17	-0.5265669
64	0x3d79e606	0.061010383
65	0xbde89862	-0.1135719
66	0x3e25dbe4	0.16197163
67	0xbd47cba6	-0.0487782
68	0x3e0cfc07	0.13768016
69	0xbe5d3b4e	-0.21604654
70	0xbdd4dc95	-0.10393635
71	0x3d7e5efb	0.0621023
72	0xbcdc00ec	-0.026855908
73	0x3cca3d80	0.024687529
74	0x3dfd0d2a	0.123560265
75	0xbe41bf5c	-0.18920654
76	0xbe0e9891	-0.13925387
77	0x3e128b46	0.14310941
78	0xbe364d19	-0.17802848
79	0xbe39994b	-0.18124883
80	0x3e2b34bf	0.1671934
81	0x3c25f00b	0.0101280315
82	0xbd291fdc	-0.04129015
83	0x3bd17d00	0.006393075
84	0xbc8ee958	-0.017445251
85	0x3e1183ca	0.1421043
86	0xbe184e93	-0.14873724
87	0xbe44ecde	-0.19230983
88	0x3b4021a9	0.0029316938
89	0x3d43e486	0.04782536
90	0xbc41b114	-0.011822004
91	0xbed31da5	-0.41233554
92	0x3d3256e0	0.04353988
93	0x3e10d91e	0.14145324
94	0xbdd8b0b3	-0.10580578
95	0x3e75febd	0.24022956
96	0x3e92fce7	0.28708574
97	0xbd3c9714	-0.046042517
98	0x3e08a772	0.13345125
99	0x3c8fd314	0.017556705
100	0x3d29f042	0.041488893
101	0x3cafc27d	0.021455044
102	0x3e466453	0.19374208
103	0x3e07fe29	0.13280548
104	0x3d1269e3	0.035745513
105	0xbd93130c	-0.07181367
106	0x3e04c44d	0.12965508
107	0x3db08190	0.08618462
108	0xbe18c036	-0.14917073
109	0x3e11db6a	0.14243856
110	0xbe0987b6	-0.13430676
111	0x3db33eee	0.08752237
112	0x3da8817c	0.08227822
113	0x3e511802	0.20419315
114	0x3eab6df1	0.33482316
115	0xbe3405a6	-0.1758028
116	0xbe3055ff	-0.17220305
117	0xbddaaea4	-0.10677841
118	0xbcf3d158	-0.029762909
119	0xbdfaef7b	-0.122527085
120	0xbf32f53f	-0.69905466
121	0xbdb5b176	-0.088717386
122	0xbda13e28	-0.078731835
123	0x3d0ba7bc	0.03409551
124	0x3d886b36	0.06661074
125	0x3e03be7e	0.12865636
126	0xbec8c05c	-0.3920926
127	0xbd7176b4	-0.058951095
128	0xbe181d0e	-0.14854833
129	0x3e1b8d42	0.15190604
130	0xbe288e56	-0.16460547
131	0x3d5d8c9c	0.054089174
132	0xbe56ed14	-0.20988876
133	0x3d5df339	0.054187033
134	0x3e1e8bb3	0.15482979
135	0x3e3cf2f1	0.1845205
136	0x396d3c00	0.00022624433
137	0xbe088fb3	-0.13336067
138	0xbc373360	-0.011181682
139	0xbd0e8cd5	-0.034802277
140	0xbd009ee0	-0.031401515
141	0x3c923c4f	0.017851023
142	0xbe4bc228	-0.19898283
143	0xbe2cc26e	-0.16871044
144	0xbd2f251c	-0.04276
145	0x3e0e48a4	0.13894898
146	0x3d7d1db5	0.06179591
147	0xbcf21798	-0.029552266
148	0x3ded4b6e	0.11586653
149	0xbde6fbde	-0.112785086
150	0xbc6827a0	-0.014169604
151	0xbd7f5d55	-0.062344868
152	0xbe28173b	-0.16415112
153	0xbe31808b	-0.17334192
154	0xbdc1fe17	-0.09472292
155	0xbe38cf40	-0.1804781
156	0x3c8c71e8	0.017144158
157	0xbc999a28	-0.018750265
158	0x3e5f46f0	0.21804404
159	0xbe75e041	-0.24011327
160	0xbe359b70	-0.17735076
161	0x3d569c9c	0.052395448
162	0xbdae3c62	-0.08507611
163	0x3e285871	0.16439988
164	0x3e1d534d	0.15363808
165	0xbe226bd6	-0.15861449
166	0xbcb43912	-0.02199987
167	0xbd4a3f30	-0.049376667
168	0xbe5f6fa0	-0.21819925
169	0x3c8b6538	0.017016038
170	0x3c9528f5	0.018208006
171	0xbcd92f13	-0.026511705
172	0x3d980f7e	0.0742483
173	0x3e009dbb	0.1256017
174	0xbda6569b	-0.081219874
175	0x3c5673c0	0.01308912
176	0x3d291272	0.041277356
177	0x3ce20398	0.027589604
178	0xbe4e65b7	-0.20155989
179	0xbe0728da	-0.13199177
180	0xbe44c328	-0.19215071
181	0xbe324e9e	-0.17412803
182	0x3dca5fe2	0.098815694
183	0xbdfcca9b	-0.123433314
184	0x3e26bfde	0.16284129
185	0x3de93516	0.113870785
186	0xbe4938e0	-0.19650602
187	0xbe18681b	-0.14883463
188	0xbe7388bd	-0.2378263
189	0x3e111a03	0.14170079
190	0x3d3f8803	0.04676057
191	0xbd312caf	-0.043255504
192	0x3d7b9c25	0.061428208
193	0xbdee9757	-0.116499595
194	0x3d0fb367	0.0350832
195	0xbe26fe0d	-0.1630785
196	0x3e21dd7c	0.15807146
197	0x3c9a44c5	0.01883162
198	0x3c7e7929	0.0155318165
199	0x3e26e153	0.16296892
200	0xbe0259de	-0.12729594
201	0x3e033ef1	0.12816979
202	0xbe1e414a	-0.15454593
203	0xbe2231fa	-0.15839377
204	0x3e33dd18	0.1756481
205	0xbe589efc	-0.21154398
206	0x3d118319	0.035525415
207	0x3e395e48	0.18102372
208	0x3e0dc515	0.13844712
209	0xbdd91361	-0.10599399
210	0x3da26a54	0.07930437
211	0xbe170174	-0.14746648
212	0x3d9366e6	0.07197361
213	0x3daf699f	0.085650675
214	0xbe4885f0	-0.19582343
215	0xbd286a3f	-0.04111695
216	0xbd237c58	-0.039913505
217	0xbe4a8f59	-0.19781245
218	0xbdab0802	-0.08351137
219	0xbea20fdc	-0.31652725
220	0x3d805cbd	0.062676884
221	0x3cda4874	0.026645876
222	0x3d1f1f00	0.038847923
223	0x3d74a3d7	0.059726562
224	0x3e6a1779	0.22860517
225	0x3e1b624b	0.15174215
226	0xbd15ee2e	-0.0366041
227	0xbdbe571b	-0.09293958
228	0xbda070aa	-0.07833989
229	0x3e443968	0.19162524
230	0xbb4ed994	-0.0031562792
231	0xbc8e5be1	-0.017377796
232	0x3dbddbe9	0.0927046
233	0xbe11be7c	-0.1423282
234	0x3e7d7e74	0.2475527
235	0xbcbe88f6	-0.023258667
236	0xbdc6c14b	-0.097048365
237	0x3e8e0ff9	0.2774656
238	0x3ced646e	0.028978553
239	0xbc138420	-0.009003669
240	0xbe82d969	-0.25556496
241	0xbe2c350a	-0.16817108
242	0x3e35e092	0.17761448
243	0xbde88124	-0.113527566
244	0xbd2d6216	-0.04232987
245	0x3dcd7e0c	0.10033807
246	0xbe3b432b	-0.18287341
247	0xbe8541e2	-0.26026827
248	0xbe26fd62	-0.16307595
249	0x3e26f9ae	0.16306183
250	0xbf0e45e7	-0.5557541
251	0xbc806e71	-0.015677663
252	0x3d7bf028	0.061508328
253	0x3df9d941	0.12199641
254	0x3e7da79a	0.24770966
255	0x3d289b50	0.041163743

arith.constant3 f4 [26]
0	0xbf1a7267	-0.60330814
1	0xbd3477cd	-0.044059563
2	0x3f2b42c2	0.6689874
3	0x3f40761e	0.7518023
4	0xbeb1bd19	-0.34714583
5	0x3c096b73	0.008387434
6	0x3e8a46d0	0.2700715
7	0x3d85a714	0.06526008
8	0xbdbaa1b6	-0.09112875
9	0xbf354478	-0.708076
10	0xbea46db4	-0.32114947
11	0xbe88f6b7	-0.26750728
12	0x3db381a9	0.08764965
13	0xbea8af85	-0.3294641
14	0x3f1edc8d	0.62055284
15	0x3e149efd	0.14513774
16	0xbed41cb2	-0.41428143
17	0xbdb37e94	-0.08764377
18	0xbf48f319	-0.7849594
19	0xbf6bad39	-0.9206119
20	0x3df98ce7	0.12185078
21	0xbe9e1b22	-0.30880076
22	0xbdd99cb4	-0.10625592
23	0x3f338914	0.7013104
24	0x3f159085	0.58423644
25	0xbef338a0	-0.4750414

arith.constant4 f4 [64]
0	0xbe7aadca	-0.24480358
1	0x3f7a01d3	0.97659034
2	0x3da2e872	0.07954492
3	0x3f8920c0	1.071312
4	0x3e89a2df	0.26882073
5	0x3dc7e779	0.09760947
6	0xbbe9ff16	-0.0071410043
7	0xbf3c6d97	-0.7360472
8	0xbf0a8f41	-0.5412484
9	0x3e53a646	0.20668897
10	0xbf9cd35d	-1.2252003
11	0xbf12d87d	-0.57361585
12	0xbebdca2e	-0.37068313
13	0x3ec0a7ac	0.37627923
14	0xbe15c624	-0.14626366
15	0xbf1134d6	-0.56721246
16	0x3edfcbd1	0.43710187
17	0xbb67df86	-0.0035381033
18	0xbeaa6afc	-0.33284748
19	0x3dc6973a	0.09696813
20	0x3f8482b4	1.0352387
21	0x3f85498c	1.041307
22	0x3d320fd0	0.04347211
23	0xbd5c5ebf	-0.053801294
24	0xbd9e1095	-0.077180065
25	0x3d5ef217	0.054430094
26	0x3f6577c7	0.8963589
27	0xbe759607	-0.23983012
28	0x3fb79e6b	1.434522
29	0xbc6bf3e3	-0.014401409
30	0xbf9833eb	-1.1890844
31	0x3bbbfde6	0.005737054
32	0x3dfde30b	0.12396821
33	0x3e5249b9	0.20535935
34	0x3fe5e515	1.7960535
35	0xbd1623e1	-0.03665531
36	0xbf8c8131	-1.0976926
37	0xbeb59c64	-0.3547088
38	0xbe53bce7	-0.2067753
39	0xbf0d9af3	-0.5531456
40	0xbf68c8fc	-0.9093168
41	0x3f7db064	0.99097276
42	0x3d06904a	0.03285245
43	0x3eac7dea	0.33689815
44	0xbf5ead9c	-0.86983657
45	0xbf0db16d	-0.55348855
46	0x3e07b29d	0.1325173
47	0x3d527a05	0.0513859
48	0x3f48b905	0.7840732
49	0x3efadf8a	0.48998672
50	0xbf023572	-0.508628
51	0xbea07f07	-0.31346914
52	0xbeb65fe9	-0.3562005
53	0x3dd0f214	0.10202423
54	0x3f826417	1.0186795
55	0x3e92fb5a	0.2870739
56	0xbd736934	-0.0594265
57	0x3f1175b7	0.56820244
58	0xbdc9c612	-0.09852232
59	0xbe5a89e0	-0.21341658
60	0x3e821b88	0.2541163
61	0x3dcd15a0	0.1001389
62	0x3fcab4db	1.5836443
63	0xbf624628	-0.883883

sequential_1/dense_1_2/Add/ReadVariableOp f4 [64]
0	0x3fc2125d	1.5161854
1	0x3fccd55d	1.6002613
2	0xbd22a97e	-0.03971242
3	0x3f86adaa	1.0521748
4	0xbe260f09	-0.16216673
5	0xbcb6a20b	-0.022294065
6	0xbce231ff	-0.02761173
7	0xbd31dc2e	-0.04342287
8	0xbd057f3a	-0.032592036
9	0xbef68738	-0.4815004
10	0xbf5f572e	-0.872424
11	0xbf709a04	-0.9398501
12	0x3fc4f453	1.5387062
13	0xbda2cbd0	-0.079490304
14	0xbd672558	-0.0564321
15	0x3fac2d75	1.3451372
16	0xbd22765d	-0.03966366
17	0xbf1e3c98	-0.6181121
18	0xbd044d45	-0.032300252
19	0xbcd5149b	-0.026010802
20	0xbf3205c8	-0.6954007
21	0xbf2069a4	-0.62661195
22	0xbed9eed4	-0.42565024
23	0xbc8bd821	-0.017070832
24	0x3e3ef56e	0.18648311
25	0xbd6a3340	-0.057177782
26	0xbdf61c16	-0.12017076
27	0xbe2282ed	-0.15870257
28	0x3f89abd9	1.0755569
29	0x00000000	0.0
30	0xbc7a43be	-0.01527494
31	0x3fa3ddc6	1.2802055
32	0xbed30774	-0.41216624
33	0xbf2954cf	-0.6614503
34	0x3f3e98c9	0.7445188
35	0xbe6a471d	-0.2287869
36	0x00000000	0.0
37	0xbf49db44	-0.788502
38	0xbfd1c588	-1.6388407
39	0xbd5bc0f1	-0.0536508
40	0xbce01e4c	-0.027358197
41	0x3f44615b	0.7671105
42	0xbe266236	-0.16248402
43	0x3f1d84a8	0.6153054
44	0xbb45141c	-0.00300718
45	0xbd4fa10e	-0.050690703
46	0x00000000	0.0
47	0xbca48a27	-0.020085407
48	0xbdba78c8	-0.091050684
49	0x3dd155db	0.10221454
50	0x3e7a8804	0.24465948
51	0x3e5f00ed	0.21777697
52	0xbce3d621	-0.027812066
53	0xbc28423f	-0.010269701
54	0xbce2a989	-0.027668731
55	0x3f34d268	0.70633554
56	0xbf7d4810	-0.98938084
57	0xbde444dc	-0.111459464
58	0xbe4c72d8	-0.19965684
59	0x3f4ac876	0.7921213
60	0xbfbdeac3	-1.4837269
61	0x3f0a4996	0.54018533
62	0x3ef5c17e	0.47999185
63	0xbf3d1c67	-0.73871464

sequential_1/dense_1/Add/ReadVariableOp f4 [64]
0	0xbebc6b2e	-0.36800522
1	0xbf9c065d	-1.2189442
2	0xbc3ca0cd	-0.011512947
3	0x3f0178c4	0.505749
4	0x3f6ea690	0.93222904
5	0xbdd10aab	-0.10207113
6	0x3f6191e0	0.8811321
7	0x3f11eaef	0.56999105
8	0xbd4bef05	-0.049788494
9	0x00000000	0.0
10	0x00000000	0.0
11	0xbfa9d127	-1.3266953
12	0xbbf28e52	-0.00740222
13	0x3ec5409c	0.38525856
14	0xbf1aaf8a	-0.604241
15	0x3e5c4b21	0.21513034
16	0x00000000	0.0
17	0xbec38339	-0.38186052
18	0xbf7a019e	-0.9765872
19	0x00000000	0.0
20	0x00000000	0.0
21	0x3fd7643a	1.6827462
22	0x00000000	0.0
23	0x3e125ccb	0.1429321
24	0xbf994e7c	-1.1977077
25	0xbd83d8fa	-0.06437869
26	0xbd2dfa98	-0.042475313
27	0xbfe90412	-1.8204367
28	0x3f28bdda	0.6591469
29	0x3f18888e	0.59583366
30	0xbf5aff85	-0.8554614
31	0x3efe2a31	0.49641564
32	0x3fc76ff0	1.5581036
33	0x00000000	0.0
34	0xbd183c3c	-0.03716682
35	0x3d68f981	0.05687857
36	0x3eeed34a	0.46645576
37	0x3dfa0a45	0.1220899
38	0xbf18c073	-0.59668654
39	0x3e858bbe	0.26083177
40	0xbf38ab1b	-0.72136086
41	0x00000000	0.0
42	0xbdd34839	-0.1031651
43	0xbedc2a94	-0.43001235
44	0x00000000	0.0
45	0x3f770afe	0.9650115
46	0xbf1eece2	-0.62080204
47	0x00000000	0.0
48	0x3f2007f0	0.6251211
49	0xbe9e66bb	-0.30937752
50	0x3fecec36	1.8509586
51	0x00000000	0.0
52	0xbf4e23af	-0.805232
53	0xbe0dad0b	-0.13835542
54	0xbf9fe9cd	-1.2493225
55	0xbfdc9dad	-1.7235619
56	0x3e70f895	0.23532327
57	0xbcb4b67e	-0.022059675
58	0x3ea325c8	0.31864762
59	0xbd89c5e4	-0.06727198
60	0xbe44f39a	-0.19233552
61	0x3f1faefb	0.62376374
62	0xbf5970ef	-0.8493795
63	0xbdef2241	-0.11676455

sequential_1/dense_1/MatMul f4 [64, 5]
0	0x3e26b0bb	0.16278355
1	0xbd97c777	-0.07411092
2	0x3e93553f	0.28775975
3	0xbe164b7d	-0.14677234
4	0xbdc45f96	-0.09588544
5	0xbe66ec66	-0.22551116
6	0x3ea4cb3f	0.32186314
7	0xbded7912	-0.11595358
8	0xbdf958b9	-0.12175126
9	0x3e2c07d6	0.16799864
10	0xbcf8fc07	-0.030393614
11	0xbe92ece8	-0.2869637
12	0x3e34aaa7	0.17643224
13	0x3d0defd4	0.034652546
14	0xbdebaca7	-0.1150754
15	0x3e69cf56	0.22832999
16	0x3e0699fd	0.1314468
17	0xbd9318a5	-0.07182435
18	0xbd166cc6	-0.03672483
19	0xbd16481c	-0.036689863
20	0xbe5593be	-0.2085714
21	0xbdafbf6e	-0.08581434
22	0x3e8a69c1	0.2703381
23	0x3e5dd158	0.2166189
24	0xbe236e7d	-0.15960117
25	0x3e36fed2	0.17870644
26	0x3de4d2b3	0.11173
27	0xbe8cb05a	-0.27478296
28	0xbe7068a7	-0.23477422
29	0x3e211437	0.15730368
30	0x3d853ace	0.06505357
31	0xbe37aaec	-0.17936295
32	0xbe8f2e06	-0.279648
33	0x3dd2510c	0.10269365
34	0x3e9f026d	0.31056538
35	0xbcf980fc	-0.030457012
36	0x3b7d8a75	0.0038687263
37	0xbe3feef6	-0.187435
38	0x3ea98a00	0.33113098
39	0xbe823b97	-0.25436088
40	0xbe561708	-0.20907223
41	0x3e44474e	0.19167826
42	0x3d845a39	0.06462521
43	0xbe73fbac	-0.23826474
44	0xbe341914	-0.17587692
45	0xbc655cc0	-0.013999164
46	0x3df93410	0.12168133
47	0xbe823314	-0.25429595
48	0xbe383f46	-0.17992887
49	0xbe6198b3	-0.22030906
50	0xbe88ecc2	-0.26743132
51	0x3e76d0a0	0.24103022
52	0xbc72df60	-0.014823765
53	0xbe6b3110	-0.22967935
54	0xbe0d38e5	-0.13791235
55	0x3d9c0d6f	0.0761975
56	0x3e473d97	0.19457088
57	0xbe34f669	-0.17672123
58	0x3e1d63a9	0.15370049
59	0x3d1a7e62	0.037718184
60	0xbe8617c2	-0.2619
61	0x3ccf802d	0.025329674
62	0x3db4c3f5	0.08826438
63	0xbddd775e	-0.10813783
64	0x3d2f8929	0.042855415
65	0xbed57375	-0.4168965
66	0xbe281950	-0.16415906
67	0xbd8e3bcf	-0.06945001
68	0x3e24075c	0.16018432
69	0x3e69d0bc	0.22833532
70	0x3c6c0700	0.014405966
71	0x3e7ad65d	0.24495836
72	0xbe00b58d	-0.12569256
73	0xbea15e58	-0.3151729
74	0x3e35f795	0.17770226
75	0x3eb38a50	0.35066462
76	0x3e4061e6	0.18787345
77	0xbda1f6eb	-0.07908424
78	0xbe321d1c	-0.17393917
79	0xbeaad159	-0.33362845
80	0xb9e92c00	-0.00044474006
81	0xbd699d68	-0.05703488
82	0xbe0d475d	-0.13796754
83	0xbdfda1a4	-0.12384346
84	0xbe47e3fa	-0.1952056
85	0x3e89f307	0.26943228
86	0xbe95fd69	-0.292949
87	0xbd29f516	-0.041493498
88	0x3e50f3b5	0.20405467
89	0xbd664218	-0.056215376
90	0x3e9215f3	0.2853237
91	0x3ddf3c0c	0.10900125
92	0xbe160e8e	-0.1465399
93	0x3e114e54	0.14190036
94	0xbe14d186	-0.14533052
95	0xbe2395bc	-0.15975088
96	0xbe313876	-0.17306694
97	0xbe345cf1	-0.1761358
98	0xbe8922ed	-0.2678446
99	0xbe63aa68	-0.22232974
100	0x3d4d3520	0.050099492
101	0xbe966ef2	-0.2938152
102	0xbe2eb6fa	-0.17061988
103	0x3c4fea80	0.0126901865
104	0xbe253b37	-0.1613587
105	0xbd9a6a62	-0.07539822
106	0x3e3f6964	0.18692547
107	0xbe696af8	-0.22794712
108	0x3d756cdc	0.05991827
109	0x3daad475	0.08341304
110	0xbe722b0c	-0.23649234
111	0x3e4e924e	0.20172998
112	0x3d1cb288	0.0382562
113	0xbe016ca8	-0.12639105
114	0xbe82bbec	-0.25533998
115	0xbeb59118	-0.3546226
116	0xbdf384a6	-0.11890535
117	0xbe9af7ef	-0.30267283
118	0x3eabf40f	0.3358464
119	0x3e3f0813	0.18655424
120	0x3e8ea344	0.27858937
121	0xbe5d65b6	-0.21620831
122	0x3dfc601c	0.12323019
123	0x3e4684ac	0.19386548
124	0xbdccd692	-0.100018635
125	0x3eb0f34e	0.34560627
126	0xbe6bdd5b	-0.23033659
127	0xbeb35280	-0.3502388
128	0xbe5a71e4	-0.21332508
129	0x3e9f78b2	0.3114677
130	0x3e40b3e3	0.18818621
131	0x3db4fc2c	0.088371605
132	0xbe02d9ff	-0.12778471
133	0xbe475967	-0.19467698
134	0xbe9f39a8	-0.31098676
135	0xbe1e3964	-0.1545158
136	0x3df6cde5	0.1205099
137	0xbd6f4fd0	-0.058425725
138	0x3d88a743	0.06672528
139	0x3d91a545	0.07111601
140	0x3e0b3c2b	0.13597171
141	0x3e5868f2	0.21133783
142	0xbe8f41de	-0.2797994
143	0xbd812975	-0.063067354
144	0xbe9761d6	-0.2956683
145	0xbe030b88	-0.12797368
146	0x3dcf8282	0.10132314
147	0xbdf3cd6c	-0.119044155
148	0x3e7c729e	0.24653098
149	0xbea10f17	-0.31456825
150	0xbe5cd02e	-0.21563789
151	0x3dd57aa1	0.1042378
152	0x3e24b50e	0.16084692
153	0x3e2f858e	0.17140791
154	0xbe4c59d1	-0.19956137
155	0xbd4fd266	-0.05073776
156	0xbe42195d	-0.18954988
157	0x3e907bb7	0.28219387
158	0xbe216e2e	-0.15764686
159	0x3e47bc76	0.19505486
160	0xbe93aa3b	-0.28840813
161	0x3d2e2ab7	0.042521205
162	0x3e214bc8	0.15751565
163	0x3dfa0698	0.12208289
164	0x3d807725	0.06272725
165	0xbe663cd8	-0.22484148
166	0x3d2c6408	0.042087585
167	0x3d7747a0	0.06037104
168	0xbdb691d8	-0.08914536
169	0xbe2d9541	-0.16951467
170	0x3ccebbbe	0.025236007
171	0x3df222d0	0.11823046
172	0xbe759b5c	-0.23985046
173	0x3d0593a3	0.0326115
174	0xbe7924b4	-0.24330407
175	0xbe92d330	-0.28676748
176	0x3d41f623	0.047353875
177	0xbe8ba4b2	-0.2727409
178	0x3ea1afa9	0.3157933
179	0x3de02c06	0.10945897
180	0xbdbaf6ce	-0.091291055
181	0xbdbdd7ef	-0.09269702
182	0x3da2ded5	0.07952658
183	0xbdc1026b	-0.09424289
184	0x3e25bce9	0.16185345
185	0x3d68b662	0.05681456
186	0xbdd4b68c	-0.103863806
187	0xbe0d4a57	-0.1379789
188	0x3def62b2	0.116887465
189	0x3daee4f7	0.08539765
190	0xbe55e382	-0.20887569
191	0x3d9f14ef	0.07767665
192	0x3e78eea6	0.24309787
193	0xbddfaeaf	-0.1092199
194	0x3e351bf9	0.17686452
195	0xbe4a3382	-0.19746211
196	0xbd9a9d64	-0.07549551
197	0x3bc7ef98	0.00610156
198	0xbe5e7c35	-0.21727069
199	0x3ebeab24	0.37239945
200	0x3e700989	0.23441137
201	0xbea1acbc	-0.31577098
202	0x3c237c1c	0.00997832
203	0x3e53d8c9	0.20688166
204	0xbbaf7084	-0.005353989
205	0xbd7c6bd4	-0.06162627
206	0xbddd854e	-0.108164415
207	0xbe60ace2	-0.2194095
208	0xbdd74cf0	-0.105127215
209	0x3dd51618	0.10404605
210	0x3eac0afb	0.33602127
211	0xbdc74c02	-0.09731294
212	0x3db7eac3	0.08980324
213	0xbd48153a	-0.04884837
214	0xbe7a4980	-0.244421
215	0xbe8c4972	-0.27399784
216	0x3e30cf78	0.17266643
217	0xbd7aec86	-0.061260723
218	0x3e8febc9	0.28109577
219	0xbdef84ee	-0.11695276
220	0xbe807dea	-0.25096065
221	0xbe3cc094	-0.18432838
222	0xbd331458	-0.043720573
223	0x3e43638e	0.19080946
224	0xbe4a1800	-0.19735718
225	0xbc8329a0	-0.01601106
226	0x3d26e67d	0.040747155
227	0x3dffa335	0.12482301
228	0x3e69b7ce	0.22824022
229	0xbe84dad5	-0.25948206
230	0xbed73372	-0.42031437
231	0xbe2117d2	-0.15731743
232	0x3e424673	0.18972187
233	0x3eb5e1c5	0.3552381
234	0xbe45fcaa	-0.19334665
235	0xbe7ff8ae	-0.24997208
236	0x3cbd88f0	0.023136586
237	0x3d82b268	0.063816845
238	0xbe1fe662	-0.15615228
239	0xbe0007b8	-0.12502944
240	0x3ddd9acf	0.10820543
241	0xbebbe72a	-0.36699802
242	0xbd370293	-0.04468019
243	0x3e0f79d4	0.14011317
244	0x3d6b4297	0.057436552
245	0x3dbaa63e	0.091137394
246	0x3ea8b675	0.32951704
247	0x3e1c5e3e	0.15270326
248	0xbe46213c	-0.19348615
249	0xbeaad527	-0.33365747
250	0xbe8d389c	-0.27582252
251	0x3e1245f8	0.14284503
252	0xbd9f3b22	-0.077749506
253	0x3cd1cb01	0.025609495
254	0x3d9d99f4	0.0769538
255	0xbe8a4360	-0.27004528
