model.tflite (tflite, 40424 bytes, 10 tensors)

arith.constant f4 [26, 32]
0	0x3e3d9afc	0.18516153
1	0xbf114e99	-0.56760556
2	0xbeeba312	-0.4602285
3	0xbf6bd1dc	-0.92117095
4	0xbee0ddf5	-0.4391934
5	0x3e4f7587	0.20259677
6	0xbf28ed13	-0.65986747
7	0xbe9b97c9	-0.3038924
8	0xbe4927ca	-0.19644085
9	0xbf806d15	-1.0033289
10	0xbe7b2fdf	-0.2452998
11	0x3e3027db	0.17202704
12	0xbf142b7e	-0.57878864
13	0xbf8c722e	-1.0972345
14	0xbf5297c7	-0.82262844
15	0xbf257c0c	-0.64642406
16	0xbf0c80c6	-0.5488399
17	0x3ea4465f	0.3208494
18	0x3d07bb65	0.033137698
19	0xbf18ee23	-0.5973837
20	0xbd729265	-0.059221644
21	0x3f10f87c	0.5662916
22	0xbf01ff7f	-0.5078048
23	0x3f0db7c6	0.5535854
24	0xbec635ae	-0.3871283
25	0xbeb4414c	-0.35206068
26	0xbf16e8d5	-0.58949023
27	0xbe852dc9	-0.26011494
28	0xbda7802b	-0.08178743
29	0xbf171733	-0.59019774
30	0x3f495b2f	0.7865476
31	0xbeb9e04a	-0.3630393
32	0xbf069a24	-0.5257895
33	0xbe9ec751	-0.3101144
34	0xbe58791f	-0.21139954
35	0xbee573b7	-0.44814846
36	0xbf38e325	-0.72221595
37	0x3d0a622a	0.033785023
38	0xbd85c872	-0.065323725
39	0xbf0053bb	-0.5012776
40	0xbf4f67dd	-0.8101786
41	0xbe2200b3	-0.15820579
42	0x3be7200a	0.00705338
43	0xbef17e0b	-0.47166476
44	0xbe9a0ad5	-0.3008639
45	0x3e83d9e8	0.25752187
46	0xbeaa2fad	-0.332395
47	0xbe9d725f	-0.3075132
48	0xbc712bec	-0.014719944
49	0xbde4bea0	-0.11169171
50	0xbf293b13	-0.66105765
51	0x3ce4cb7f	0.027929066
52	0xbe14df2e	-0.14538261
53	0xbbf86d23	-0.0075813695
54	0xbe5842b5	-0.21119197
55	0x3edc2c72	0.4300266
56	0xbec90f62	-0.3926955
57	0xbdae3e58	-0.08507985
58	0xbdea7696	-0.114484
59	0x3d437023	0.047714364
60	0xbe102b25	-0.14078958
61	0x3e7f785b	0.24948256
62	0xbe6796a0	-0.22616053
63	0x3d841068	0.06448442
64	0x3ea563fc	0.32302845
65	0xbf7a971e	-0.97886837
66	0x3e242753	0.16030626
67	0xbd8772fe	-0.0661373
68	0xbf46ef32	-0.77708733
69	0xbe747439	-0.2387246
70	0xbdf689f1	-0.12038029
71	0xbf6380f2	-0.8886863
72	0x3cb33c5d	0.02187937
73	0xbfc2c552	-1.5216467
74	0xbe0663ec	-0.13124055
75	0x3e909eb9	0.28246096
76	0x3d4a7158	0.0494245
77	0xbf80c736	-1.0060794
78	0xbf9e86b8	-1.2384863
79	0xbd9fbd77	-0.077998094
80	0x3e9ed5ac	0.31022394
81	0xbe7490bf	-0.23883341
82	0x3ebc9847	0.36834928
83	0xbeccdd8b	-0.40012774
84	0x3e8c570a	0.27410156
85	0x3f4b1e6c	0.79343295
86	0xbf8e1b1a	-1.1102021
87	0x3e36a84e	0.1783764
88	0x3f1b9179	0.6076885
89	0xbd9e3155	-0.07724253
90	0x3d54225d	0.051790584
91	0x3e283912	0.1642802
92	0xbd264a32	-0.040598102
93	0x3e726654	0.23671848
94	0xbf16db53	-0.5892841
95	0xc028459c	-2.6292486
96	0x3d8a7dab	0.067622505
97	0xbffe2c2c	-1.985723
98	0x3ed48953	0.4151102
99	0x3eac83c2	0.33694273
100	0xbefd8ecb	-0.49523005
101	0x3cf5fe1e	0.0300284
102	0xbe1cc8c2	-0.15310958
103	0xbefda636	-0.4954087
104	0xbf4b11b4	-0.7932389
105	0xbee19ea7	-0.44066355
106	0x3e6fec5e	0.2343001
107	0x3e94514f	0.28968284
108	0xbf0ff3a5	-0.5623115
109	0xbeaffcd9	-0.34372595
110	0xbe4a4b08	-0.19755185
111	0xbe7d8965	-0.24759443
112	0x3da40e9b	0.08010598
113	0x3eb72cb0	0.3577628
114	0x3d90587f	0.07048129
115	0xc03d8636	-2.9613166
116	0x3e2c32f1	0.16816308
117	0x3ed6b757	0.41936752
118	0x3e9cebbb	0.30648598
119	0xbf9a81fe	-1.207092
120	0xbc5a5e21	-0.013328106
121	0x3df09b56	0.11748378
122	0xbe960440	-0.29300117
123	0x3eeddae4	0.46456063
124	0x3dda0f52	0.10647453
125	0x3e403ab6	0.18772396
126	0xbe86eb27	-0.26351282
127	0xbf8aa29a	-1.0830872
128	0xbf9e4bd7	-1.2366894
129	0x3f5b2cb9	0.85615116
130	0xbb92dd1e	-0.0044819256
131	0x3deda7fe	0.116043076
132	0x3ebad524	0.36490738
133	0x3f37170f	0.7151956
134	0xc0020acb	-2.0319088
135	0xbd92281b	-0.07136556
136	0x3ee0e3dd	0.43923846
137	0xbf2a5830	-0.66540813
138	0xbf1f6ca9	-0.6227518
139	0x3eccc138	0.39991164
140	0x3ee03553	0.43790683
141	0xbeada6d1	-0.33916333
142	0x3e9b8bf8	0.30380225
143	0xc011d0fd	-2.2783806
144	0x3d7aeec0	0.061262846
145	0x3ef5a042	0.4797383
146	0xbf3cf514	-0.7381146
147	0x3daf6ca7	0.08565646
148	0xbf9c7af7	-1.2225026
149	0xbde042a6	-0.10950212
150	0x3edae672	0.4275394
151	0xbf3513a4	-0.70733094
152	0x3e3b55ee	0.18294498
153	0xbee099ef	-0.43867442
154	0xbef43abb	-0.47701058
155	0xbd241a8c	-0.04006438
156	0x3e3f7b7d	0.18699451
157	0xbf888e29	-1.0668384
158	0xbed895e9	-0.42301872
159	0xbd72389f	-0.05913603
160	0xbe12e080	-0.14343452
161	0xc035f454	-2.8430376
162	0xbda1f2a8	-0.07907611
163	0xbf3e0cfe	-0.74238575
164	0x3ead653a	0.33866292
165	0x3ef07e8f	0.46971557
166	0xbf1217cb	-0.57067555
167	0xbdceb1f7	-0.10092538
168	0xbe4c9c9a	-0.19981614
169	0xc0001d46	-2.0017867
170	0xbd91376b	-0.07090648
171	0x3e2f4f42	0.17120078
172	0xbe4ff6dc	-0.20309013
173	0x3ed36872	0.41290623
174	0xbf549085	-0.8303302
175	0xbfe10c74	-1.7581925
176	0xbe2d2136	-0.169072
177	0x3e10a017	0.1412357
178	0x3e81be42	0.25340468
179	0xbf0146fe	-0.5049895
180	0x3eb48691	0.35258916
181	0xbf7e8091	-0.99414927
182	0x3ea239cb	0.31684718
183	0x3eb22421	0.3479319
184	0x3e0dcb75	0.13847144
185	0xbf4393f7	-0.7639765
186	0x3eca50f9	0.39514902
187	0xc02f462f	-2.7386587
188	0x3e8c0320	0.27346134
189	0xbfeebbee	-1.8651102
190	0xbf2d7282	-0.6775285
191	0x3eb9655c	0.36210144
192	0xbf9fcc1c	-1.2484164
193	0xbebce2a3	-0.3689166
194	0x3ee95421	0.45571998
195	0xbf9fe926	-1.2493026
196	0xbd3f656f	-0.046727594
197	0x3ecf041d	0.40432826
198	0x3e840942	0.25788313
199	0xbe9c4893	-0.3052412
200	0xbe853f28	-0.26024747
201	0xbf8ab013	-1.0834984
202	0x3e033af8	0.12815464
203	0x3e0e56d4	0.1390031
204	0xc01c5a43	-2.4430091
205	0xbf032a96	-0.51236856
206	0xbe608818	-0.21926916
207	0xbf9ae5f6	-1.2101429
208	0x3e60b36e	0.21943447
209	0x3eb23901	0.34809116
210	0x3f019c14	0.5062878
211	0x3d29825a	0.04138408
212	0xbf48189e	-0.7816256
213	0x3c482a40	0.012217104
214	0xbf98852d	-1.1915642
215	0xbf28db06	-0.65959203
216	0x3f3d909d	0.7404879
217	0x3f692a53	0.91080207
218	0xbe2d9691	-0.16951968
219	0xc00da859	-2.2134001
220	0xbe94ece7	-0.29086992
221	0x3ef0d5cc	0.47038114
222	0xbea7ba23	-0.327592
223	0xbf2efdef	-0.6835622
224	0xc04a956f	-3.1653707
225	0xbf9b191c	-1.2117038
226	0x3ebc467c	0.36772525
227	0xbe7bcf3e	-0.24590775
228	0xbeab8cc6	-0.3350584
229	0xbd752d23	-0.0598575
230	0xbe2769f6	-0.16349015
231	0xbd826c6a	-0.063683346
232	0xbe076568	-0.13222277
233	0xbf49d427	-0.78839344
234	0x3df9ffab	0.12206968
235	0xbd2c38bf	-0.042046305
236	0xbfb25ecf	-1.3935183
237	0x3edc44cb	0.43021235
238	0xbe3f0a42	-0.18656257
239	0xbfae302a	-1.3608449
240	0xbea9c5ec	-0.33158815
241	0xbea34346	-0.31887263
242	0xbe86845f	-0.26272866
243	0x3ea31fcf	0.31860206
244	0xbfa39d34	-1.278235
245	0xbeb1591d	-0.346383
246	0x3eef8298	0.46779323
247	0xbf291671	-0.6604987
248	0x3e8f1fce	0.27953953
249	0x3d1ebd95	0.03875502
250	0x3dcd4a7c	0.100239724
251	0xbbae6f4b	-0.0053233257
252	0xbd00b719	-0.031424616
253	0x3f21a594	0.6314328
254	0x3d7d5747	0.061850812
255	0x3e0189e9	0.12650265

arith.constant1 f4 [32, 64]
0	0xbd8a3dad	-0.06750045
1	0x3eb30c52	0.34970337
2	0x3d535107	0.051590946
3	0x3efc2b32	0.49251705
4	0x3bb2e760	0.005459711
5	0xbf026c2d	-0.50946313
6	0x3df6d8c2	0.12053062
7	0x3ee127fd	0.4397582
8	0x3f598885	0.8497394
9	0xbd7adad0	-0.061243832
10	0xbd633619	-0.055471513
11	0x3e14e113	0.14538984
12	0xbf827439	-1.0191718
13	0xbeaf76e6	-0.342704
14	0xbe47425e	-0.19458911
15	0xbe236e00	-0.1595993
16	0x3e03368a	0.12813774
17	0x3d9cb08e	0.07650863
18	0xbe43b4b4	-0.19111902
19	0xbcd7a7cb	-0.026325127
20	0x3e8c294e	0.27375263
21	0x3cde17d0	0.027110964
22	0xbe52784a	-0.20553699
23	0xbf072c5d	-0.5280207
24	0xbe484882	-0.1955891
25	0x3f62462a	0.8838831
26	0x3be7681b	0.007061971
27	0x3cd5c911	0.026096852
28	0xbe88f333	-0.26748046
29	0x3da378e8	0.079820454
30	0xbe7aefb7	-0.24505506
31	0xbe959f38	-0.29223037
32	0xbe95f001	-0.2928467
33	0xbdd550f9	-0.10415835
34	0x3e223a67	0.15842591
35	0xbda4937a	-0.080359414
36	0xbc484650	-0.012223795
37	0x3ec3f263	0.38270864
38	0xbeb2cef4	-0.34923518
39	0xbe85fcf9	-0.26169565
40	0x3e46a906	0.19400415
41	0xbe0d8f85	-0.1382428
42	0xbe82d063	-0.2554961
43	0xbf862562	-1.0480158
44	0x3e1184a7	0.14210759
45	0x3e62298c	0.22086161
46	0x3f297af9	0.66203266
47	0x3ee153b4	0.44009173
48	0xbdb9f302	-0.09079553
49	0x3dc56f21	0.09640337
50	0xb9d77db5	-0.00041101655
51	0x3dad941e	0.08475517
52	0x3e03d753	0.12875108
53	0x3e24d13d	0.16095443
54	0xbdfe712a	-0.12423928
55	0x3ce61204	0.028084762
56	0x3ddf4f80	0.10903835
57	0xbd03ea20	-0.0322057
58	0x3e54fe67	0.20800172
59	0x3db15796	0.08659284
60	0xbd01502f	-0.03157061
61	0x3dcd05de	0.10010885
62	0x3f220611	0.63290507
63	0x3db3a51a	0.08771725
64	0xbdc05218	-0.09390658
65	0x3d428080	0.04748583
66	0x3e6efed0	0.23339391
67	0xbe3159b6	-0.17319378
68	0x3eb40276	0.35158128
69	0xbeb951b3	-0.36195144
70	0xbe88405f	-0.2661161
71	0xbe8076d2	-0.25090653
72	0xbcbd0693	-0.023074424
73	0x3d93b5a3	0.07212379
74	0x3ed5210b	0.41626772
75	0x3e6a6199	0.22888793
76	0xbe968ff0	-0.2940669
77	0xbc81a535	-0.015825847
78	0x3ea3ec5a	0.3201626
79	0x3e89dcba	0.26926214
80	0xbf4c5df9	-0.7983089
81	0x3e0b3607	0.13594829
82	0x3e693f80	0.2277813
83	0x3e4fd669	0.20296635
84	0xbd7f9c3d	-0.06240486
85	0xbe5383b2	-0.20655707
86	0xbeb4a94d	-0.35285416
87	0x3d8f78ff	0.070055
88	0x3e93d647	0.28874418
89	0xbe8101db	-0.25196728
90	0x3d98ace8	0.07454854
91	0x3f158824	0.5841086
92	0x3e540a3b	0.20707028
93	0xbe9dca13	-0.30818233
94	0xbdde23bc	-0.108466595
95	0x3e892894	0.2678877
96	0xbdef8513	-0.11695304
97	0x3cc4d481	0.024027111
98	0xbe64f197	-0.22357784
99	0xbfa0fcda	-1.2577164
100	0xbdb61bf4	-0.088920504
101	0xbcd26f66	-0.025687885
102	0xbe94e9cd	-0.29084626
103	0x3d545d61	0.051846866
104	0xbdd543b1	-0.10413302
105	0xbde88698	-0.11353797
106	0xbeaaa0b4	-0.33325732
107	0x3dd846c5	0.10560373
108	0x3d537a24	0.051630154
109	0xbe48dbdc	-0.1961512
110	0x3db4a756	0.08820979
111	0x3d6b169a	0.0573946
112	0xbf5b2ae9	-0.8561235
113	0xbe455e6b	-0.19274299
114	0xbeb65d13	-0.35617885
115	0xbee5762a	-0.44816715
116	0xbea74c7c	-0.3267554
117	0x3d0230bd	0.03178476
118	0x3ec456bf	0.38347432
119	0xbe4f36c4	-0.20235735
120	0xbe1b2bf9	-0.15153493
121	0x3eecf96b	0.4628404
122	0xbe16a028	-0.14709532
123	0x3dfd8157	0.12378185
124	0x3d25eb50	0.040507615
125	0xbf1b3446	-0.6062664
126	0x3ebd327e	0.36952585
127	0x3edd0a05	0.43171707
128	0xbdda5e87	-0.10662561
129	0x3df7bda1	0.12096716
130	0xbe28dec1	-0.16491224
131	0x3e346361	0.17616035
132	0x3f284453	0.65729254
133	0x3d8fd95d	0.07023881
134	0xbba5f2db	-0.005064351
135	0xbbb45869	-0.0055037034
136	0xbec54244	-0.3852712
137	0xbe652351	-0.22376753
138	0x3d818b56	0.06325404
139	0x3e7434da	0.23848286
140	0xbeb9bec6	-0.3627836
141	0xbddf8662	-0.10914303
142	0xbe8b5eb6	-0.27220696
143	0x3db0a77c	0.08625695
144	0xbb6e828e	-0.0036393735
145	0x3e1d17fe	0.15341184
146	0x3d1135a2	0.03545154
147	0x3d0fb9c9	0.035089288
148	0x3eb2d253	0.3492609
149	0xbde876c2	-0.11350776
150	0xbde9dc12	-0.11418928
151	0xbec483a9	-0.383817
152	0x3e8e03bf	0.27737233
153	0xbc9629c1	-0.018330457
154	0xbd9f1386	-0.07767396
155	0xbf1b6e30	-0.6071501
156	0xbf7738d8	-0.9657111
157	0xbc023f8f	-0.007949724
158	0xbe1d5bbd	-0.15367027
159	0x3e92fb5d	0.287074
160	0xbcf26a61	-0.029591741
161	0xbe8d3ca2	-0.27585322
162	0x3ea7de18	0.32786632
163	0xbe9854cd	-0.29752198
164	0xbe9aa980	-0.30207443
165	0xbbe77975	-0.0070640394
166	0x3ce6aa59	0.0281574
167	0x3d3b3773	0.045707177
168	0xbdf9b7cb	-0.12193259
169	0x3e1df87e	0.15426823
170	0xbdf82d2b	-0.1211799
171	0x3f2c6caf	0.6735334
172	0x3e38a9f0	0.18033576
173	0x3e08fb72	0.13377169
174	0x3d96fd9c	0.07372591
175	0x3e74e54d	0.23915596
176	0xbddf1dca	-0.10894354
177	0xbe9fadc8	-0.31187272
178	0x3e455b92	0.19273213
179	0x3d74b515	0.059743006
180	0x3e5bd708	0.21468747
181	0xbca2ffa4	-0.01989729
182	0x3e1d1429	0.15339722
183	0xbdf2b4b8	-0.118508756
184	0x3db21bc3	0.086967014
185	0xbe2f1679	-0.17098416
186	0xbadd301d	-0.0016875301
187	0xbe969284	-0.29408658
188	0xbe638671	-0.22219254
189	0xbcf3b52f	-0.029749481
190	0x3dcf30a9	0.10116703
191	0x3e8329f5	0.25617948
192	0x3e7cc6a0	0.24685144
193	0x3e74162d	0.23836584
194	0xbdaf0c60	-0.08547282
195	0xbfa98ca8	-1.324605
196	0x3e443685	0.19161423
197	0xbf081feb	-0.531737
198	0xbd691181	-0.05690146
199	0xbde7ce4a	-0.113186434
200	0x3ec7ef01	0.39049533
201	0x3ebdbeea	0.37059718
202	0xbd819438	-0.063270986
203	0xbf1a9f7a	-0.6039959
204	0x3e814fc9	0.25256184
205	0xbf57c4fa	-0.8428494
206	0xbe496ce6	-0.19670448
207	0xbcbea3a3	-0.023271387
208	0xbf6fa6ce	-0.936139
209	0x3d14451e	0.036198728
210	0x3deaa0b9	0.11456437
211	0xbf0dd3dd	-0.554014
212	0xbdd5107e	-0.10403536
213	0x3d4056ca	0.04695777
214	0xbf0623cd	-0.5239838
215	0x3e739640	0.23787785
216	0x3e7b6920	0.24551821
217	0xbc0955c5	-0.008382265
218	0x3dad6388	0.0846625
219	0xbe70f7ec	-0.23532075
220	0xbdca8779	-0.098891206
221	0xbd311cce	-0.04324036
222	0x3b775330	0.0037738793
223	0xbf36d628	-0.71420527
224	0x3c321de0	0.010871381
225	0x3e62d381	0.22150995
226	0xbd96a8fe	-0.073564515
227	0x3ea0ae6d	0.31383076
228	0xbfbc0109	-1.4687816
229	0x3ea6eb05	0.3260118
230	0x3d0fff0a	0.035155334
231	0xbe037e3f	-0.12841128
232	0xbee7595c	-0.45185363
233	0xbe64cd54	-0.22343951
234	0xbeb901cb	-0.3613418
235	0x3dea9056	0.11453311
236	0xbe2e3d20	-0.17015505
237	0xbd92de18	-0.07171267
238	0x3e24f130	0.1610763
239	0x3e179033	0.14801101
240	0xbd239792	-0.03993947
241	0x3dbb1638	0.09135097
242	0xbe59139e	-0.2119889
243	0xbe5e241a	-0.21693459
244	0xbf07ed34	-0.5309632
245	0xbd72f195	-0.05931242
246	0x3c07570b	0.008260499
247	0x3c5aec80	0.01336205
248	0x3e140240	0.14453983
249	0xbe55b96c	-0.20871514
250	0x3ef8b855	0.48578134
251	0xbe880285	-0.26564422
252	0x3c512270	0.012764558
253	0x3d382010	0.044952452
254	0x3d1fd777	0.039023843
255	0xbf80aa59	-1.0051986

arith.constant2 f4 [64, 64]
0	0xbe070f38	-0.13189399
1	0x3e0e2bad	0.13883848
2	0xbe296c84	-0.16545302
3	0xbe2ae4bd	-0.16688819
4	0xbe377860	-0.17917013
5	0xbe71518d	-0.23566265
6	0x3d826f96	0.063689396
7	0xbe3d89a0	-0.18509531
8	0x3da5e93e	0.08101128
9	0x3d85e5c6	0.065379664
10	0xbd92582e	-0.07145725
11	0xbc05a110	-0.008156076
12	0xbc8328e0	-0.016010702
13	0x3c9dd700	0.019267559
14	0x3e4b293f	0.19839953
15	0xbdd837ee	-0.10557543
16	0xbe58f664	-0.2118774
17	0xbe516488	-0.20448506
18	0x3da35cce	0.079766855
19	0x3e2450ab	0.16046397
20	0xbd1e97d0	-0.038719
21	0xbe572251	-0.21009184
22	0xbe0e654f	-0.13905834
23	0x3e27d83d	0.16391082
24	0xbd1c0bbe	-0.038097136
25	0x3dc2d44a	0.09513147
26	0xbe1e20b5	-0.15442164
27	0xbe5f4124	-0.21802193
28	0xbcd78d30	-0.02631244
29	0xbe3124be	-0.17299172
30	0xbe129f08	-0.14318478
31	0x3dcb1be0	0.09917426
32	0x3e077fcc	0.13232344
33	0x3d17b8a5	0.037041325
34	0xbd70dfe0	-0.058807254
35	0x3d616acc	0.05503349
36	0xbd9f6044	-0.07782033
37	0x3ddbdf6e	0.10735975
38	0x3b16d8b6	0.0023017353
39	0x3d881726	0.0664504
40	0x3e0a7559	0.13521327
41	0xbe2ac6fe	-0.16677472
42	0x3d038adc	0.03211485
43	0xbe7d6541	-0.24745657
44	0x3db514fe	0.088418946
45	0x3dbfe7fe	0.09370421
46	0xbe3d4cde	-0.18486354
47	0xbc08b23a	-0.008343274
48	0x3dd92bc1	0.106040485
49	0x3d52339c	0.05131875
50	0x3e534369	0.20631184
51	0x3e0388eb	0.12845199
52	0xbce1e126	-0.02757318
53	0xbd281d11	-0.041043345
54	0xbe7ae093	-0.24499731
55	0xbe303997	-0.17209469
56	0x3ca78b4d	0.020452166
57	0xbde3e4e6	-0.11127643
58	0xbda023cb	-0.07819327
59	0xbcf4b108	-0.029869571
60	0x3cc047b0	0.023471683
61	0xbdeb1b77	-0.11479848
62	0xbc3b0baa	-0.011416355
63	0x3de61666	0.11234741
64	0xbe401981	-0.18759729
65	0xbed45fb6	-0.41479272
66	0xbf0e16d8	-0.55503607
67	0x3ce168fa	0.027515877
68	0x3e870dc6	0.26377696
69	0x3eab69be	0.33479112
70	0xbdb88b7d	-0.0901098
71	0xbd48c1aa	-0.049012817
72	0x3cab47d8	0.020908281
73	0x3eac5ef0	0.33666182
74	0xbdec4051	-0.11535705
75	0xbe1da9e2	-0.15396836
76	0xbd812b18	-0.063070476
77	0xbfe7faa2	-1.8123362
78	0x3eaa3c2a	0.33249027
79	0x3e003643	0.12520699
80	0x3d3c8c38	0.04603216
81	0x3e3d175d	0.18465944
82	0x3e12d0e6	0.14337501
83	0x3ec23dd2	0.3793779
84	0xbdfb3098	-0.12265128
85	0xbf3e3dc2	-0.74312985
86	0xbe16ac88	-0.14714253
87	0x3caafd58	0.020872757
88	0x3d9926f2	0.07478131
89	0xbe57892b	-0.21048419
90	0xbf5d9bfa	-0.86566126
91	0xbefdb594	-0.49552596
92	0xbe731765	-0.23739393
93	0x3e0a5057	0.1350721
94	0x3dcace68	0.0990265
95	0xbe7b5881	-0.2454548
96	0x3e2898ee	0.16464588
97	0x3dddb8ea	0.10826285
98	0x3d2dfd7b	0.042478066
99	0xbf8c344b	-1.0953459
100	0xbc01f21e	-0.00793126
101	0x3e4459e3	0.19174914
102	0xbf4dc63b	-0.803806
103	0xbcfc7610	-0.030818015
104	0x3ed1fed0	0.4101472
105	0x3dcd1b9b	0.10015031
106	0x3c91b378	0.017785773
107	0xbdbdfa54	-0.09276262
108	0x3e40a5f7	0.1881331
109	0x3e487c67	0.19578706
110	0xbd2f620c	-0.042818114
111	0xbeb867b7	-0.36016628
112	0x3db7a082	0.08966161
113	0xbe118392	-0.14210346
114	0xbdc552fe	-0.0963497
115	0x3bdd61c4	0.0067560393
116	0x3e0cbece	0.13744661
117	0x3e0dccfe	0.1384773
118	0x3db8ac61	0.09017254
119	0x3e4eb0b8	0.201846
120	0x3dd5d9d4	0.10441938
121	0x3e24a2ad	0.16077681
122	0xbe6dd532	-0.23225859
123	0xbd235008	-0.039871246
124	0xbec5d597	-0.3863952
125	0xbe0913fe	-0.13386533
126	0xbe90aea0	-0.28258228
127	0xbd7498ba	-0.059715964
128	0x3d1fa9ca	0.038980283
129	0xbdb93dae	-0.090449676
130	0xbe50e11d	-0.20398374
131	0x3d568cc0	0.052380323
132	0xbd6f30db	-0.0583962
133	0xbe3c49cb	-0.18387525
134	0xbe0a393a	-0.13498393
135	0xbdaf920e	-0.085727796
136	0xbd16e3ec	-0.036838457
137	0x3d545b6f	0.05184501
138	0xbe0add88	-0.1356107
139	0x3d6e8ec4	0.05824162
140	0xbdc8b457	-0.09800022
141	0xbe47a78f	-0.19497512
142	0x3bccb8e0	0.0062476248
143	0x3e03f04d	0.12884636
144	0x3c63f0ea	0.013912419
145	0x3dc37747	0.09544235
146	0x3e39177b	0.18075363
147	0xbe278536	-0.1635941
148	0x3d07c068	0.033142477
149	0xbd045c2d	-0.03231447
150	0xbd73ad1c	-0.05949126
151	0x3d7f90ec	0.062394068
152	0xbe0103d9	-0.12599124
153	0xbe0f7d09	-0.14012541
154	0xbdd50f3a	-0.10403295
155	0xbda3dbe4	-0.08000925
156	0x3de150de	0.11001752
157	0xbe3800fa	-0.17969123
158	0xbd3b48f4	-0.04572387
159	0xbe21784c	-0.15768546
160	0xbd31b4a5	-0.043385167
161	0x3d8a9c34	0.06768075
162	0xbd9a3e90	-0.07531464
163	0x3c670630	0.014100596
164	0x3cdf47d2	0.027255926
165	0x3db82fae	0.08993469
166	0xbe4f670b	-0.20254152
167	0xbd9b2bb8	-0.07576698
168	0xbde9a06b	-0.114075504
169	0xbdcafd0e	-0.099115476
170	0xbe365de2	-0.17809251
171	0xbda781e6	-0.08179073
172	0x3d3c3a24	0.045953885
173	0x3e420fdb	0.18951361
174	0xbe1dca07	-0.15409099
175	0x3da31995	0.07963864
176	0x3df11959	0.11772413
177	0xbd9280c6	-0.07153468
178	0xbd46819c	-0.04846345
179	0xbe6e4e61	-0.23272087
180	0xbe772188	-0.24133885
181	0xbe857a17	-0.2606971
182	0xbe2b8380	-0.16749382
183	0x3d31fdb5	0.043454845
184	0x3cbf2be2	0.023336355
185	0xbe022698	-0.12710035
186	0xbdba0cc1	-0.09084464
187	0xbe1e0db2	-0.15434912
188	0xbb58a05b	-0.0033054564
189	0xbe2e92cf	-0.1704819
190	0x3c524e0e	0.0128359925
191	0x3e128871	0.14309861
192	0xbe8b901a	-0.27258378
193	0xbe319f52	-0.17345932
194	0x3d24d6ac	0.04024379
195	0xbf049f19	-0.51805264
196	0x3daae611	0.08344663
197	0xbe837827	-0.25677606
198	0xbf4e8b8a	-0.8068167
199	0xbdf2f580	-0.11863232
200	0x3cb09caf	0.021559088
201	0xbda6dc7b	-0.08147522
202	0xbe24323e	-0.16034791
203	0x3d197724	0.037467137
204	0x3def5f92	0.116881505
205	0xbdeae6ee	-0.114698276
206	0x3ed76fab	0.42077383
207	0xbea9e674	-0.33183634
208	0x3da0618f	0.07831108
209	0xbfc1188e	-1.5085618
210	0xbe032002	-0.12805179
211	0xbe8a3c72	-0.2699924
212	0xbe37cf22	-0.17950109
213	0xbe1f6499	-0.15565719
214	0xbf145685	-0.5794452
215	0xbeafb35a	-0.34316522
216	0xbe2727c3	-0.16323762
217	0xbe134955	-0.14383443
218	0x3ebc0001	0.36718753
219	0xbe87704a	-0.26452857
220	0x3c50924a	0.0127301905
221	0xbd174744	-0.0369332
222	0xbe94d0e9	-0.29065636
223	0x3dfdb36c	0.12387738
224	0x3dd88e2b	0.105739914
225	0xbf5d615b	-0.8647668
226	0x3d36aef1	0.04460043
227	0xbf94c99d	-1.1624027
228	0xbeaea48c	-0.34109914
229	0xbe4b198a	-0.19833961
230	0x3e06e6c7	0.13173972
231	0x3d9e933e	0.07742928
232	0xbf21d613	-0.63217276
233	0x3da04b30	0.07826841
234	0x3c5b056a	0.01336799
235	0xbd40de7a	-0.04708717
236	0xbc8f3120	-0.01747948
237	0x3e251847	0.16122542
238	0x3e649302	0.22321704
239	0x3ba253fa	0.0049538584
240	0xbd7ab7cc	-0.06121044
241	0x3d99551e	0.07486938
242	0x3e4e0815	0.2012027
243	0x3d5f681d	0.05454265
244	0xbf6f4cb5	-0.9347642
245	0xbec50a82	-0.3848458
246	0x3e30cd04	0.17265707
247	0x3d849b7d	0.064749695
248	0x3d60e48e	0.054905467
249	0xbe2d4658	-0.16921365
250	0xbe99b0e7	-0.30017778
251	0xbe2334c6	-0.159381
252	0x3eb02221	0.34401038
253	0x3cdf3be9	0.027250247
254	0x3abcc6db	0.0014402525
255	0x3e44d8e7	0.19223367

arith.constant3 f4 [64, 32]
0	0xbe02b6bc	-0.1276502
1	0xbe38db4a	-0.18052402
2	0x3e3f989d	0.18710561
3	0xbed428f8	-0.41437507
4	0x3e5a6786	0.21328554
5	0x3e421555	0.1895345
6	0xbe315561	-0.17317726
7	0x3e8d0ca5	0.2754871
8	0x3d8bdcd2	0.068292275
9	0xbe545710	-0.20736337
10	0x3cf872f6	0.030328255
11	0x3e42dfec	0.19030732
12	0xbf2b42b1	-0.6689864
13	0x3e7b4605	0.24538429
14	0x3dc47dc3	0.095943
15	0x3ccc08a8	0.024906471
16	0xbd0b3281	-0.03398371
17	0x3dcf75f5	0.101299204
18	0xbd72c752	-0.059272118
19	0x3e64ac40	0.22331333
20	0x3db713af	0.08939301
21	0xbe6165a0	-0.22011423
22	0xbdeca6da	-0.11555262
23	0xbca67e6b	-0.020323953
24	0xbdc7ada2	-0.09749915
25	0xbe134b4b	-0.1438419
26	0x3dd8442c	0.10559878
27	0xbd267650	-0.040640175
28	0x3e93a9f6	0.28840607
29	0xbe4352d9	-0.19074573
30	0x3c96f3c4	0.018426783
31	0xbe8c0d59	-0.27353933
32	0xbde69d23	-0.1126044
33	0x3e2e3ed3	0.17016153
34	0x3e3198a5	0.17343386
35	0x3da007a8	0.0781396
36	0xbd7a591c	-0.061120138
37	0x3e17d222	0.14826253
38	0xbed376a5	-0.41301456
39	0x3e472ced	0.19450732
40	0x3dca58a7	0.0988019
41	0x3ef5b43d	0.47989073
42	0x3ef045de	0.46928304
43	0x3e1a0de6	0.15044364
44	0x3e8c327a	0.2738226
45	0xbe992557	-0.299113
46	0x3dd74ce4	0.105127126
47	0xbe0485d6	-0.1294168
48	0xbeb2aded	-0.3489832
49	0xc0569886	-3.3530593
50	0xbe215186	-0.15753755
51	0x3e39ec73	0.18156604
52	0x3e526899	0.20547713
53	0x3d988ab4	0.074483305
54	0x3e7c1fa9	0.24621452
55	0x3e1753b2	0.14778021
56	0xbe14025e	-0.14454028
57	0x3d5e9cac	0.054348633
58	0x3e072046	0.13195905
59	0x3e5a3bd0	0.21311879
60	0x3e010b68	0.12602007
61	0x3e65044b	0.22364919
62	0x3e57110b	0.21002595
63	0x3d0c899f	0.034310933
64	0xbf5091af	-0.81472296
65	0xbd4659a4	-0.04842533
66	0xbdde5eb8	-0.1085791
67	0x3f4caf87	0.79955333
68	0x3e550b18	0.20805013
69	0xbe274110	-0.16333413
70	0xbe7b20ee	-0.2452428
71	0xbf1c8fe9	-0.6115709
72	0xbe0c3208	-0.1369096
73	0x3e1610fa	0.14654914
74	0x3f6fcb81	0.936699
75	0xbd505854	-0.050865486
76	0x3f1247e5	0.5714095
77	0x3d0a1111	0.033707682
78	0xbe55e8f5	-0.20889647
79	0x3e10d152	0.1414235
80	0x3e510faf	0.20416139
81	0x3ef11eb3	0.47093734
82	0x3e49cf12	0.19707897
83	0xbe55554d	-0.20833321
84	0x3c561dd1	0.013068632
85	0xbd28e9f2	-0.041238733
86	0x3ce2064d	0.027590895
87	0x3e619b4d	0.22031899
88	0x3e46aa65	0.19400938
89	0x3ea45fb6	0.32104272
90	0x3cf49fce	0.029861357
91	0xbd8c3cd0	-0.068475366
92	0xbe91257e	-0.28348917
93	0xbdd64740	-0.104628086
94	0x3ef1128d	0.47084466
95	0xbf6eb239	-0.93240696
96	0xbf1dfae1	-0.61710936
97	0xbe36cbf0	-0.17851233
98	0x3dd781e1	0.10522819
99	0x3ee2d225	0.44300953
100	0x3e8f4db3	0.27988967
101	0x3e73ec87	0.23820697
102	0xbeb29743	-0.3488103
103	0xbe305fdb	-0.17224066
104	0xbe342892	-0.17593601
105	0x3fbcf0a4	1.4760938
106	0x3ea8add0	0.32945108
107	0x3d7ceec2	0.061751135
108	0xbe311b70	-0.17295623
109	0x3dfe95e5	0.12430934
110	0xbe5e2a6c	-0.2169587
111	0xbe91c6dc	-0.2847203
112	0xbeff6119	-0.49878767
113	0x3e525c09	0.20542921
114	0x3ed01a24	0.40644944
115	0xbe59439c	-0.21217197
116	0x3d0259a0	0.031823754
117	0xbe985050	-0.29748774
118	0x3d47dcd6	0.04879459
119	0xbf1df624	-0.61703706
120	0xbe538fc2	-0.20660308
121	0x3e29b594	0.16573173
122	0x3e818567	0.2529709
123	0x3e42e718	0.19033468
124	0x3db2f034	0.08737221
125	0xbdfe8df2	-0.12429418
126	0xbc67c3d5	-0.014145811
127	0x3f8afde1	1.0858728
128	0x3e32eab6	0.17472348
129	0xbe558364	-0.20850903
130	0x3deb4195	0.11487118
131	0x3db550e7	0.088533215
132	0x3f1f4ca9	0.6222635
133	0xbdc6a722	-0.09699847
134	0x3c8309bd	0.015995855
135	0xbe8c01f8	-0.27345252
136	0xbdf794d4	-0.120889336
137	0xbcc49f54	-0.024001755
138	0xbd356c95	-0.044293005
139	0x3d18a26c	0.037264273
140	0xbed9be3b	-0.42527947
141	0xbe66085a	-0.22464123
142	0x3e34e4d5	0.17665417
143	0xbdd235e0	-0.10264182
144	0xbdf6f0d4	-0.12057653
145	0xbe5bec07	-0.21476756
146	0x3e4b6f4d	0.19866677
147	0xbe4e8a6f	-0.20169996
148	0x3d02be2c	0.031919643
149	0x3d0de528	0.03464237
150	0x3ebe10ce	0.37122196
151	0x3eef6e6a	0.46763927
152	0x3d9ff603	0.07810595
153	0x39b0d8ff	0.0003373101
154	0x3e760bd3	0.24027948
155	0x3cc27cc0	0.023741126
156	0xbe57f768	-0.21090472
157	0xbdf73eab	-0.120725
158	0xbebf9243	-0.37416276
159	0x3f51d08e	0.81958854
160	0x3eae26b1	0.34013894
161	0x3de058e1	0.10954452
162	0x3df97877	0.1218118
163	0x3be04b35	0.006844903
164	0xbdb3f2da	-0.08786555
165	0x3e1dad82	0.15398219
166	0xbe00674b	-0.12539403
167	0x3f23d387	0.6399464
168	0x3e2334ea	0.15938154
169	0xbe5d2c51	-0.21598937
170	0x3d82d828	0.06388885
171	0x3e2708ef	0.16312002
172	0x3f0c67e6	0.54846036
173	0x3dadf7db	0.0849454
174	0x3d1d8ad9	0.038462494
175	0xbbad721d	-0.0052931444
176	0xbe0c51c2	-0.13703063
177	0x3e8b6711	0.2722707
178	0xbeef5387	-0.46743414
179	0x3c8c8c27	0.017156674
180	0xbe36fb2c	-0.17869252
181	0x3e616fc0	0.22015285
182	0xbd050b3b	-0.032481413
183	0xbe049c67	-0.12950288
184	0x3de641a3	0.11242988
185	0xbf03ba0c	-0.5145576
186	0xbea3923d	-0.31947508
187	0x3d7f4b70	0.062327802
188	0xbe92479b	-0.28570256
189	0x3e713c6b	0.23558204
190	0xbea6c8c5	-0.3257505
191	0x3e5100ff	0.20410536
192	0x3e314579	0.17311658
193	0xbe540fc1	-0.20709135
194	0xbe06b43c	-0.13154691
195	0x3fa615b4	1.2975373
196	0x3dd3c51b	0.10340329
197	0xbf115b1b	-0.5677964
198	0xbda1bfa0	-0.07897878
199	0xbed71273	-0.42006263
200	0xbda0d078	-0.07852262
201	0xb981e84a	-0.00024777866
202	0x3f709d84	0.9399035
203	0x3da9c567	0.08289605
204	0x3d563f7f	0.05230665
205	0xbccb8d6c	-0.024847709
206	0xbe40a93e	-0.18814561
207	0x3df9c30b	0.121954046
208	0x3eaa8ee2	0.33312136
209	0x3e453582	0.19258693
210	0xbd1f04a5	-0.03882279
211	0xbcb10af9	-0.021611677
212	0x3ef95ed1	0.48705152
213	0x3dc2b6ca	0.095075205
214	0xbe86a070	-0.2629428
215	0x3cd33bff	0.025785444
216	0x3ddcca4f	0.10780775
217	0xbebb62b1	-0.36598733
218	0xbf2770e8	-0.65406656
219	0x3e64294c	0.22281379
220	0xbcea57e8	-0.02860637
221	0x3e5db290	0.21650147
222	0x3e83e276	0.25758713
223	0xbf36b7c6	-0.71374166
224	0x3e70ff2f	0.23534845
225	0x3ce4a62f	0.027911274
226	0xbe3877eb	-0.18014495
227	0x3e7ddb97	0.24790798
228	0xbf4c99e5	-0.79922324
229	0x3e043a36	0.1291283
230	0x3d45bbd9	0.04827485
231	0xbdc68cde	-0.09694837
232	0x3dc345a7	0.095347695
233	0x3eb9bf60	0.3627882
234	0xbd5c7936	-0.053826533
235	0x3d86d349	0.06583268
236	0x3f1632e8	0.58671427
237	0x3d57e739	0.052710745
238	0x3e05b419	0.13056983
239	0xbe602e79	-0.21892728
240	0xbe793bac	-0.2433917
241	0x3d588221	0.052858476
242	0x3bd6bee2	0.0065535167
243	0xbd142037	-0.036163535
244	0xbe46263a	-0.1935052
245	0x3cc3c4f2	0.023897622
246	0x3e033b84	0.12815672
247	0xbdc17a69	-0.09447176
248	0x3def2cb3	0.116784476
249	0xbdb02e89	-0.08602626
250	0xbe04955b	-0.129476
251	0x3e3c206c	0.18371743
252	0x3e989eb1	0.29808572
253	0xbd5f2146	-0.05447509
254	0x3e1c61b0	0.1527164
255	0xbf08c5bc	-0.5342672

arith.constant4 f4 [26]
0	0xbf0302af	-0.5117597
1	0xbe184b54	-0.14872485
2	0x3ffe1fda	1.985347
3	0x401b5bde	2.4274821
4	0x3f38ce63	0.7218992
5	0x3e2c2dbb	0.1681432
6	0x3f577b1f	0.8417224
7	0x3f95b19e	1.169483
8	0x3e1770a3	0.14789061
9	0xbe15d135	-0.14630587
10	0xbe4c7632	-0.19966963
11	0xc01ef9ec	-2.484004
12	0xbf21bb24	-0.6317618
13	0xbf34c4ae	-0.7061261
14	0x3e722e27	0.23650418
15	0xbe4a1b92	-0.1973708
16	0xbf384f9e	-0.71996486
17	0xbe33e72f	-0.17568658
18	0xbf4cd9e5	-0.8001998
19	0xbd9e9bc8	-0.07744557
20	0x3d8b7f7e	0.068114266
21	0x3d04c8ca	0.03241805
22	0xbeff22a6	-0.49831122
23	0xbe81d800	-0.25360107
24	0xbdbef3f6	-0.093238756
25	0x3e00deeb	0.12585036

arith.constant5 f4 [32]
0	0x3fb21747	1.3913354
1	0x3bfcfaeb	0.0077203414
2	0x3fd8d2c1	1.6939317
3	0xbe946a5f	-0.28987405
4	0xbf4ef3ee	-0.8084096
5	0xbe7ee26a	-0.24891058
6	0x3cc5c3b4	0.02414117
7	0xc0268125	-2.6016324
8	0xbe4f4c6e	-0.20244
9	0xbf6a9329	-0.916308
10	0xbcc65202	-0.024209026
11	0x3f66a3c3	0.9009363
12	0xbdcd35af	-0.10020005
13	0x3eac5762	0.33660418
14	0xbf31ab6d	-0.694022
15	0x3e731fed	0.23742647
16	0xbc130af4	-0.008974779
17	0xbdea3c81	-0.114373215
18	0x3ffab312	1.9585898
19	0xbe235e91	-0.15954043
20	0x3ed537dc	0.4164418
21	0x3ff3c91f	1.9045752
22	0x3fa95f8c	1.3232284
23	0x3ee76b00	0.45198822
24	0x3fc51a1f	1.5398597
25	0xbe130beb	-0.14360015
26	0x3ea19ce4	0.3156501
27	0x401b536a	2.4269662
28	0xbdbad06e	-0.09121786
29	0x3e9aa8f4	0.30207026
30	0xbeae8fd1	-0.34094098
31	0xbf81f777	-1.0153645

arith.constant6 f4 [64]
0	0xbcfbca34	-0.030736066
1	0xbd583825	-0.05278792
2	0xbd58f06f	-0.05296367
3	0xbe5abdde	-0.21361491
4	0x3f48cd8b	0.78438634
5	0xbfbca6e7	-1.4738435
6	0x3e2632b3	0.16230278
7	0x3e3fb9ac	0.18723172
8	0x3f45b6a7	0.7723183
9	0xbd22efc3	-0.039779436
10	0x3fa17bb4	1.2615876
11	0xbe07526c	-0.13215035
12	0xc03ac2e2	-2.9181447
13	0xbeee9748	-0.46599793
14	0x3deb0f49	0.11477525
15	0x3e8b3a3d	0.2719287
16	0x3f85a98a	1.0442364
17	0xbf1ba8d6	-0.608045
18	0xbc371b2c	-0.011175912
19	0xbf76155c	-0.9612634
20	0x3f8d0b26	1.1019027
21	0xbc823658	-0.015895054
22	0xbe484125	-0.195561
23	0xbacd429b	-0.0015660109
24	0xbe3aed4e	-0.18254587
25	0xbfc02348	-1.5010767
26	0xbdb54dc1	-0.08852721
27	0xbee6f47a	-0.45108396
28	0xbe4ef844	-0.20211893
29	0x3de2ed8c	0.11080465
30	0xbfc11aa6	-1.5086257
31	0x3effddbe	0.49973863
32	0xbff7fe1b	-1.9374422
33	0xbe310b7b	-0.17289536
34	0xbe4b5da7	-0.19859944
35	0xbefb0358	-0.4902599
36	0xbf0b3239	-0.5437351
37	0xbf560c94	-0.8361294
38	0xbfd5bd25	-1.6698347
39	0x3f298c70	0.66229916
40	0x3f13239a	0.574762
41	0xbb86d073	-0.0041142046
42	0x3e66c8e4	0.22537571
43	0x3e89d477	0.2691991
44	0x3f017f03	0.5058443
45	0xbd8b38da	-0.06797953
46	0x40376cde	2.8660197
47	0x3f91f1ce	1.1401918
48	0xbf864ecc	-1.0492797
49	0x3f2ab483	0.6668169
50	0x3d3af8f2	0.04564757
51	0x3f830e3b	1.0238718
52	0x3eb21860	0.34784222
53	0xbf59d815	-0.8509534
54	0xbff4bbe1	-1.9119836
55	0xbd489d99	-0.04897842
56	0xbd3374e8	-0.043812662
57	0xbd9c080a	-0.07618721
58	0xbd276fc4	-0.040878072
59	0xbde7c6e4	-0.11317232
60	0xbcef65c4	-0.02922333
61	0x3f3eae22	0.74484456
62	0x3dde7937	0.10862964
63	0xbe1864f6	-0.14882264

sequential_1/dense_1_2/Add/ReadVariableOp f4 [64]
0	0xc016dff8	-2.35742
1	0xbd4f24ea	-0.050572313
2	0x3f7fc76a	0.99913657
3	0x3f4698c9	0.7757688
4	0xbea6e4d0	-0.32596445
5	0x3eb27a75	0.34859052
6	0x3f599573	0.84993666
7	0xbfd506bc	-1.664268
8	0xbd3be052	-0.045868225
9	0xbf6ec177	-0.93263954
10	0xbcba714b	-0.0227591
11	0xbd73b883	-0.059502136
12	0x00000000	0.0
13	0xbfc06c1c	-1.5032992
14	0xbf717ce0	-0.9433117
15	0x3e17ba94	0.14817268
16	0xbf2f478f	-0.68468565
17	0x3efe8415	0.49710146
18	0x3c99655f	0.018725095
19	0x3fa0993b	1.2546762
20	0x3e5c4a63	0.21512751
21	0x3eb2281a	0.3479622
22	0x3e061394	0.13093406
23	0x3f9f1735	1.2428957
24	0xbf9d0d3f	-1.2269667
25	0xbdef0f69	-0.11672861
26	0xbf3a4e96	-0.7277616
27	0x400b0531	2.1721919
28	0xbd8d20ba	-0.06891008
29	0xbcedb9c5	-0.029019246
30	0x3da25a1d	0.07927344
31	0xbefe2df4	-0.49644434
32	0xbff240ab	-1.8925985
33	0x3fde4d4e	1.7367342
34	0xbf2a2aa4	-0.66471314
35	0xbe7a77df	-0.2445979
36	0xbf8698f3	-1.0515426
37	0xbbece3a9	-0.0072292876
38	0xbed11fdf	-0.40844628
39	0x00000000	0.0
40	0x3f9c7181	1.2222139
41	0x3fd6aef3	1.677214
42	0xbe26c3c1	-0.16285612
43	0x3d73f73f	0.059561964
44	0xbae9cd58	-0.0017837686
45	0xbd92661a	-0.071483806
46	0x3ef3ef13	0.47643337
47	0xbf1427c1	-0.5787316
48	0xbff705fd	-1.9298702
49	0xb6743ccf	-3.6394229e-06
50	0xbd046707	-0.032324817
51	0xc010f1ce	-2.2647586
52	0x3edba0c5	0.42896095
53	0xbff295fa	-1.8952019
54	0x3fc3dcb9	1.5301734
55	0xc007bb34	-2.120801
56	0x3f54ae3a	0.8307835
57	0xbef7bdfc	-0.48387134
58	0xbf9e123b	-1.2349313
59	0x00000000	0.0
60	0xbf040e47	-0.51584285
61	0xbdce06fd	-0.10059927
62	0x3efbb418	0.49160838
63	0xbf8a5f6f	-1.0810374

sequential_1/dense_1/Add/ReadVariableOp f4 [32]
0	0x3eabf210	0.33583117
1	0xbcef23f0	-0.029191941
2	0x3fb2ba10	1.3963032
3	0x3f70aa85	0.9401019
4	0x3e32a01e	0.17443892
5	0x3a4e8fc6	0.00078797
6	0xbfc419a3	-1.5320324
7	0xbde9ff48	-0.11425644
8	0xbc637ff1	-0.013885484
9	0x3f13cd04	0.57734704
10	0x3e6075f1	0.21919991
11	0xbf80746d	-1.003553
12	0x3f31c6d6	0.69444025
13	0xbf6fd938	-0.93690825
14	0xbfbf4ac6	-1.4944694
15	0xbf93382c	-1.1501517
16	0x3f812f67	1.0092591
17	0x3f08481a	0.5323502
18	0x3d901498	0.07035178
19	0x3c311690	0.010808602
20	0x3f0d7c6e	0.5526799
21	0x4005147f	2.079376
22	0x3c982810	0.01857379
23	0x3eef6635	0.46757665
24	0xbfbec2a1	-1.4903146
25	0xbe156ca3	-0.14592223
26	0xbfd645b6	-1.6740024
27	0x00000000	0.0
28	0xbed11bf3	-0.40841636
29	0xbcc5b74f	-0.02413526
30	0x3f9de6e6	1.233609
31	0x3f9ae211	1.210024

sequential_1/dense_1/MatMul f4 [32, 5]
0	0x3de4f478	0.11179441
1	0x3ede637b	0.43435273
2	0x3e8dbe58	0.27684283
3	0xbe80f437	-0.2518632
4	0xbeed30ef	-0.46326396
5	0x3dcd2d74	0.10018435
6	0xbed49dec	-0.41526735
7	0xbea457e9	-0.3209832
8	0xbe5b01f3	-0.21387462
9	0xbce5e61e	-0.02806383
10	0x3d8c3a4d	0.068470575
11	0x3c839340	0.016061425
12	0x3d70dba8	0.05880323
13	0xbe6f5aae	-0.23374435
14	0x3ce29b48	0.027661934
15	0x3d7fec20	0.062481046
16	0x3f0a506a	0.5402895
17	0xbea4a2b7	-0.32155392
18	0xbeae5c2d	-0.340547
19	0x3d501cb5	0.050808627
20	0xbe139c8a	-0.14415184
21	0xbf4dca76	-0.80387056
22	0xbf9880b0	-1.1914272
23	0x3eafbe9c	0.3432511
24	0x3d0868d9	0.033303116
25	0xbddde82a	-0.108352974
26	0x3e9bceca	0.30431205
27	0x3e45fb9f	0.19334267
28	0xbeca0036	-0.39453286
29	0x3eb8af35	0.36071172
30	0x3ea946b9	0.3306177
31	0x3e30a0e8	0.17248881
32	0x3d714110	0.05889994
33	0x3e343a30	0.17600322
34	0xbedac263	-0.4272643
35	0xbdda44a1	-0.10657621
36	0x3ee37d9f	0.4443178
37	0x3eabe31e	0.33571714
38	0xbed52f1f	-0.41637513
39	0xbdf10d26	-0.11770086
40	0x3d191683	0.037374984
41	0xbe684104	-0.22681051
42	0xbd787ad6	-0.06066402
43	0xbeaa70ec	-0.33289278
44	0xbe6c75a9	-0.23091759
45	0xbedea5c7	-0.43485853
46	0x3ca77987	0.020443691
47	0x3ef93bc6	0.48678416
48	0x3dbf02a2	0.09326674
49	0xbee9bc41	-0.4565144
50	0x3e18a7a2	0.14907697
51	0x3ed5adb4	0.41734087
52	0xbeb1a7f3	-0.34698448
53	0xbe6233e2	-0.22090104
54	0x3bb01046	0.0053730337
55	0xbd9b30c0	-0.07577658
56	0x3eb31ddc	0.34983718
57	0x3d152fdb	0.03642259
58	0xbebe1b76	-0.37130326
59	0x3e82f4ea	0.2557748
60	0x3d92a65a	0.07160635
61	0xbf8a363a	-1.0797799
62	0x3d7f7637	0.062368598
63	0xbe9eb01d	-0.3099374
64	0x3e089168	0.13336718
65	0xbe7ed97a	-0.24887648
66	0xbe7e2f28	-0.24822676
67	0x3eb59e57	0.35472366
68	0x3e1538dc	0.14572471
69	0x3ddb2e23	0.10702159
70	0x3e537b94	0.2065261
71	0xbf0677f3	-0.5252678
72	0x3e777b2d	0.24168082
73	0x3e13493f	0.1438341
74	0x3d2a0120	0.04150498
75	0xbdd3b4b5	-0.103372015
76	0xbdda5a03	-0.106616996
77	0x3dd41611	0.10355771
78	0x3e91bc6c	0.28464067
79	0xbe259214	-0.16169006
80	0xbd7a692b	-0.061135452
81	0x3e277844	0.16354471
82	0xbe02a136	-0.1275681
83	0x3f00dfaf	0.50341314
84	0xbeab92a7	-0.33510324
85	0x3de1457f	0.109995835
86	0xbf209853	-0.6273243
87	0x3ef0a4c5	0.4700071
88	0xbda475d6	-0.08030288
89	0xbc529460	-0.012852758
90	0x3ec18391	0.3779569
91	0x3e90bd3f	0.28269383
92	0xbec228b8	-0.3792169
93	0xbe87da4d	-0.26533738
94	0x3e7e883b	0.24856655
95	0x3e78f353	0.24311571
96	0x3ea35156	0.31897992
97	0xbebce2cf	-0.3689179
98	0xbe8c3a1b	-0.2738808
99	0xbe519dd6	-0.20470366
100	0x3ea0b8ff	0.3139114
101	0xbdf44b43	-0.119284175
102	0xbe830afd	-0.2559432
103	0x3ddc1cd9	0.1074769
104	0xbc0bd5e0	-0.0085348785
105	0xbec290e7	-0.38001177
106	0xbe50f48a	-0.20405784
107	0x3dfa2932	0.12214889
108	0x3ea34989	0.3189204
109	0x3e19a391	0.15003802
110	0x3ef9d353	0.4879404
111	0x3d9e8cfe	0.07741736
112	0x3d28f3cb	0.041248124
113	0xbebc2ae1	-0.36751464
114	0xbe0576cd	-0.130336
115	0x3ed1ba07	0.4096224
116	0xbeb16982	-0.3465081
117	0x3e402875	0.18765433
118	0xbd9f1481	-0.07767583
119	0xbeced49b	-0.4039658
120	0xbe041f1f	-0.12902497
121	0xbecb4224	-0.396989
122	0x3e868da8	0.2627995
123	0x3e8e9850	0.2785058
124	0x3ddf7d59	0.1091258
125	0x3d8b77a5	0.0680993
126	0x3d416b74	0.047221616
127	0xbebd46f2	-0.3696819
128	0xbdc02821	-0.09382654
129	0x3ed454b8	0.41470885
130	0x3eca6c5e	0.39535803
131	0x3c8aee18	0.016959235
132	0xbc5d47ad	-0.013505858
133	0xbeb3777c	-0.35052097
134	0x3e779d55	0.24181111
135	0xbe916ce3	-0.28403386
136	0x3ebb21de	0.36549276
137	0xbebb39d8	-0.3656757
138	0xbe9e2a84	-0.30891812
139	0xbc05d2c0	-0.0081679225
140	0xbd436b0c	-0.04770951
141	0xbfab2dd2	-1.3373358
142	0xbe1f7ec5	-0.15575702
143	0x3eb2107b	0.347782
144	0x3e0ecb12	0.13944653
145	0xbe95198d	-0.29121056
146	0x3e90e399	0.28298643
147	0xbe501a71	-0.20322587
148	0xbdd717e3	-0.10502603
149	0xbc9fd1ca	-0.019509215
150	0xbe9ed8be	-0.31024736
151	0x3cdd728c	0.02703216
152	0xbeb86a8f	-0.36018798
153	0x3e9277ef	0.28607127
154	0x3ec85605	0.39128128
155	0x3c801f96	0.015640061
156	0xbe1b80b1	-0.1518581
157	0x3edcd5b9	0.43131807
158	0xbee0e026	-0.43921012
159	0x3e0f6233	0.14002304
