model.tflite (tflite, 44020 bytes, 8 tensors)

arith.constant f4 [26, 64]
00000000: 808e 6cbf 71d3 c5bf 1b84 ce3d 8c3c f2bd
00000010: 268c 2b3d 5682 2c3d ce85 c93d 4a6d 4e3e
00000020: c5cd f5bd b732 d8bd f7d5 a7be 5409 3dbf
00000030: 8b0d 39bf 2b98 edbc 008c 24bf 0bb9 adbe
00000040: 7451 64be bd97 8b3c 68af fcbd 3f8b 97be
00000050: 7667 2cbf 5834 3bbe 053f 6abe 951f 98be
00000060: a62a 3fbd 03e3 a5bf 6ef4 0ebe 8b97 0cc0
00000070: e461 203e de61 aebe ef74 7abe 02ed c2be
00000080: 9333 9bbe 37de 1abf 9a3c c03e 96a3 1cbf
00000090: 1987 40bf f284 14bd 5d6b 9a3c 63bc 15bf
000000a0: 8ce7 86bf ab05 cebe 7a28 8dbe 053d 43bd
000000b0: a656 78be 4e1e 38bd 1046 72bf dd50 b93e
000000c0: 3424 0c3d 2ee9 86bd 22bd b0be 7bf8 64bf
000000d0: 8987 06bf 597f 36be 6f37 d73d 45f3 07bd
000000e0: 2995 9c3e ad8c dbbe fb59 713c 844e 43be
000000f0: 4ae4 08bf 86a2 4a3e 4f2b 08bf c445 8ebe
00000100: 1cf6 39be c382 b6bf cc6e 99be 1a5e 85bb
00000110: f5ae f93d f55f e93e aeed 1a3e ef20 c53d
00000120: 1cf0 0cbe 0517 a53d 7d3a 2bbe 4d90 94bf
00000130: 297d cabf beab 043d acf7 e3be eeed 26be
00000140: aff1 c4be e346 36be b236 99be 28fb 1cbf
00000150: 0efd c1bd bad2 14bf 6651 87be cb33 1bbd
00000160: c8c5 d43d d6ac 5ebc 684c 8f3c e8e3 1cc0
00000170: 4a06 3cbf 70e0 1dc0 ce7f 58bd 62ea 52be
00000180: 8765 1dbf e1c2 693c 6b19 783e e73e 213e
00000190: 08de 44be 32cd 31be 5fb7 dbbd b885 863f
000001a0: 052d 82be a341 0dbd c2fe 4c3d 22f1 2bbe
000001b0: 7d67 2fbc 71bb edbd 3b8b 06bf 7945 40be
000001c0: 059d 99be 1e21 e8be 79a9 2cbe 3c12 a3be
000001d0: 8dba b5be d214 ba3d 4f82 1ebe 5bd5 34be
000001e0: c609 99be 45bc 6cbd 60d1 99be 82d1 9dbd
000001f0: 0e58 90bf 0acc 09be 9af3 71be 70f4 bf3e
00000200: 9a5b 4ebf e83f d8bf 0489 103f e7d9 ee3e
00000210: 05df cabf 34fe cbbd 5338 033e 0e34 743e
00000220: 78ec 70c0 5583 adbd 1ebc 553f 6238 0fbf
00000230: d941 44bf eaed 68be 7e69 d43e 2b52 a5bf
00000240: 77c9 8ebf bcdf ccbe 99f5 f33d f0b2 bdbd
00000250: 4a7a 49bf dad3 253e 817a 843f 26a3 29bf
00000260: ef9f a3bc e858 05c0 e997 a1bf 1593 18c0
00000270: 91ca 923e a03f a9bd 0bfa 25bf 6066 0cc0
00000280: 2e8d b33e 45c4 933e d313 9bbe 7260 09be
00000290: def3 90bf 74b1 f5bc 8da5 8c3e 9f91 0ac0
000002a0: b257 223d 460b c6be 214c cc3e 380c 9bbe
000002b0: a775 83bf 6cb0 023f 90b8 0a3f d658 93be
000002c0: 7375 263e 6f6a 27bf c338 b7bf 6404 09c0
000002d0: 3054 63be 80bb a03e 9cf0 16be 22b5 3fbf
000002e0: 787a 063f 895c 0abf 2942 943e d0f1 c1bd
000002f0: 7484 80bf d818 223f a43e a5bd 3550 7abf
00000300: f503 2dbf ef7d f1bf 6224 923e 0b18 b33e
00000310: a046 9d3d 518a 2ebf 0750 623e a3d8 00bf
00000320: 2029 a93b 24c0 9bbf 144e 46c0 5605 59c0
00000330: 76bc af3c 3f3c 8fbe d678 313f c768 17bf
00000340: b133 713d 62e7 443d 2f89 123e c539 ce3d
00000350: 6e8c 0abc 4d2d 003d a025 3e3f 5c66 26c0
00000360: 5ca6 bfbd 8241 8e3e b9a2 0bc0 d579 ffbe
00000370: fa00 af3e fa43 7dbf 771e 263e 9a13 57bf
00000380: 7636 c23e be05 a6be fbd3 943e 079d 32be
00000390: e892 5c3d b749 99be 5a77 8e3e fd06 dabf
000003a0: 7908 ce3c 177e 0cbf c0e4 303e ee9d 18bd
000003b0: 0fa3 efbe 93fe 513e c10b 88bd 5ad6 1fbf
000003c0: 9e28 03be 9d32 74bf 421e 84bf 33e8 53c0
000003d0: 8cf3 29be 9fcc 463e 27c0 273d 549c 8abf
000003e0: dee4 dbbd 8d24 cb3d 94ac 8dbf 875e 2fc0
000003f0: 7f3f eabf 3f2a cebf 2243 b83e 49f6 f2bd
-0.9240494 -1.5455152 0.10083791 -0.11827955 0.041881703 0.042116486 0.09839974 0.20158878
-0.12002138 -0.10556548 -0.3278043 -0.7384236 -0.7228629 -0.029003223 -0.64276123 -0.3393024
-0.22296697 0.017040128 -0.123381436 -0.29598424 -0.6734537 -0.18281686 -0.22875603 -0.29711595
-0.046671532 -1.2959903 -0.1396043 -2.1967494 0.15662342 -0.34059042 -0.24458669 -0.38071448
-0.30312786 -0.6049532 0.37546235 -0.6118711 -0.7520614 -0.0362596 0.018850023 -0.5849058
-1.0539412 -0.402387 -0.27569944 -0.047665615 -0.24251804 -0.044950776 -0.94638157 0.36194506
0.034214213 -0.06587444 -0.34519297 -0.8944165 -0.5255056 -0.17822017 0.1050862 -0.033190984
0.3058255 -0.42880765 0.014730926 -0.1907292 -0.5347334 0.1978856 -0.53191084 -0.27787602
-0.1816029 -1.4258655 -0.29967344 -0.0040700557 0.121915735 0.45581022 0.1512973 0.09625422
-0.1376347 0.08061031 -0.1672153 -1.1606537 -1.5819446 0.03239035 -0.44524896 -0.163017
-0.3846564 -0.17800479 -0.29924542 -0.61320734 -0.094720945 -0.58134043 -0.2642929 -0.03789119
0.10389286 -0.013591012 0.017492488 -2.4514103 -0.73447096 -2.4668236 -0.05285626 -0.20597222
-0.61483043 0.014267654 0.24228446 0.15746652 -0.19225323 -0.17363432 -0.10728335 1.0509558
-0.25424972 -0.034486424 0.050047643 -0.16791204 -0.010705826 -0.11608017 -0.525562 -0.18776502
-0.3000261 -0.45337766 -0.16861524 -0.3184985 -0.3549389 0.090860024 -0.15479396 -0.17659514
-0.2989027 -0.057796735 -0.30042553 -0.07705976 -1.1276872 -0.13456741 -0.23628083 0.3749118
-0.8060852 -1.6894503 0.5645907 0.4665062 -1.584931 -0.09960595 0.12814455 0.23847982
-3.764433 -0.08472315 0.8349017 -0.5594541 -0.76662976 -0.22747007 0.41486734 -1.2915701
-1.1155232 -0.40014446 0.119120784 -0.09262645 -0.78702223 0.16194096 1.0349885 -0.6626457
-0.019973723 -2.0835514 -1.2624484 -2.3839772 0.2867017 -0.08264089 -0.6483466 -2.1937485
0.3506865 0.2886068 -0.30288562 -0.13415697 -1.1324422 -0.029991843 0.27470055 -2.165138
0.039634414 -0.38680476 0.39901832 -0.3028276 -1.027028 0.5105045 0.5418787 -0.28778714
0.16255741 -0.6539678 -1.4314197 -2.140893 -0.22200084 0.3139305 -0.14740223 -0.7488576
0.5253062 -0.5404745 0.28956726 -0.0946995 -1.0040421 0.6331916 -0.080685884 -0.97778636
-0.6758416 -1.8866557 0.28543383 0.3497928 0.07679486 -0.68179804 0.2210084 -0.5033056
0.005162373 -1.2168012 -3.0985155 -3.3909507 0.02145217 -0.27975652 0.69325006 -0.5914425
0.058887187 0.048072226 0.14310144 0.100696124 -0.008456333 0.031293202 0.7427616 -2.5999975
-0.093579024 0.27784353 -2.1818068 -0.49897638 0.34180433 -0.9893185 0.16222559 -0.84014285
0.37932175 -0.32426256 0.29067978 -0.17442714 0.05385104 -0.29939052 0.27825433 -1.7033383
0.025150524 -0.548799 0.17274761 -0.03725999 -0.4680409 0.20507269 -0.06642867 -0.6243645
-0.12808463 -0.9538973 -1.0321734 -3.3110473 -0.16596812 0.19413994 0.040954735 -1.0828958
-0.10737012 0.09919081 -1.1068292 -2.7401445 -1.8300627 -1.6106642 0.35988718 -0.118633814

arith.constant1 f4 [64, 64]
00000000: 8aa3 2cbe 61e1 b5be 8557 273d 3924 8e3e
00000010: 0875 b1be 1f87 32be fe2a 39be d9b0 1cbd
00000020: bf43 99be 36f7 44be 9397 e33d 4b9d c5bd
00000030: 5c37 983e 9978 3abe 5774 2dbf f2d1 243e
00000040: 1fea 1f3b 3e72 cf3e 4cd6 9ebd 19bf ac3e
00000050: 6bdc b13d b5a6 a23e b656 8e3e d912 e73e
00000060: f56b 42bd 19ac ab3d 0df6 71bd a7f5 53be
00000070: eb2f 853d 949e 60be 4da5 f0bc f730 71be
00000080: 1a1c b23b ee46 09bb 4d4b afbb 395d bbbd
00000090: 5b5e 2bbe 73c5 2b3e 7a9c 203e 5071 7dbd
000000a0: c11b cc3d ca09 2dbe 9000 183d 3953 22bd
000000b0: c2b5 923e a5d3 283e 3ca7 803e 7ae6 4dbe
000000c0: dcae edbd 82db 1dbe 98d6 42be 1385 f73d
000000d0: 8988 933e 1e65 803d 8483 61be 86af e23e
000000e0: fb43 b6be 41cc 253e 33e5 86bf 818e da3e
000000f0: 09fe 94bc bf75 0fbe c133 093e bd6b e1be
00000100: cd09 1f3e 8682 9d3c 2a0a a8bd 37c1 b1be
00000110: bdea 22be b407 1abe 86ce 6f3e 8e90 27be
00000120: b04a a23e 08ed eabe 17b9 56be 5ecb 85bd
00000130: 7b9b f93c ba35 843d 195c 823e d53e 0a3e
00000140: 459e d6bd 79a4 79be 401d 3c3d 5bbc af3e
00000150: e929 c0bd 77be df3d c459 1cbf da0d efbc
00000160: 804b 813e 77c2 08be d4f1 943d ab92 10be
00000170: 52a7 a8be e913 e6be 0052 df3e cf48 f6be
00000180: ed7d 4f3e 1420 1dbe d369 5dbe c9af a4bd
00000190: be4b 213e 9a74 09be 08ca 8bbe d3ff 49bf
000001a0: 9f25 1abe 49fb 4d3d b55a 213e 6269 6e3e
000001b0: a292 dcbe d6c0 b53d 51db 7bbe 881d 95bc
000001c0: 4871 08bf c9fb c03c 7d28 c23d 1637 8e3e
000001d0: b3c2 0d3d 234f e93d 63e6 343e 60d5 303e
000001e0: 0d9f 7cbe a1a0 a93c 6ff6 143d 4582 cebc
000001f0: 91a1 dabc 74d2 2a3d 828e 8cbd 4a47 2dbe
00000200: 5264 ba3c 1a71 093d 61df 0dbe d750 42be
00000210: 8d2b 943e f152 193d 1760 c3bc 2bd5 653e
00000220: 657a f33e de23 4a3e d4aa 033d 9868 783e
00000230: 4562 a8be e77a 65bd c095 e43d 283b 2bbe
00000240: edf8 66be 125d 0ebe 084c 17be 719c 1abe
00000250: 2918 713e 8ad9 88be 16df ddbe 57dc 87bd
00000260: 0918 5dbf 0a8f 243d ddbe b53e f5a2 23be
00000270: f3fb 40bf 5db8 98be 1ad7 a83e 787d 1dbf
00000280: ea30 3c3a 2b5b e2bd 1cfb 3d3d 8c51 e03d
00000290: afa4 a03d 3674 babe 361b c13e 5e9e 59be
000002a0: 79e6 16be a5d0 963d b707 d03d b603 6a3e
000002b0: 85e2 863e 2367 d23d 7307 15be a1da d93d
000002c0: f645 873e 27de 753d 7096 c43e b3c5 dabd
000002d0: bdaf a9be 0ae2 c63e 4fca 023d e84b 333f
000002e0: 6b00 a93e d50c 083e 5449 163f 1438 263e
000002f0: 38b3 cd3c 128e ca3c 6ad4 23be cd7d c63e
00000300: 2747 65bb 74d7 64bf c882 64bf b995 0fbe
00000310: 2df6 27bf a771 693d f72d 1f3d 4c34 7a3e
00000320: 706a 033e 6a31 1cbc 87b3 03bf 1c80 3d3e
00000330: a849 953e 8812 8abe b1ce edbc 85e3 2d3d
00000340: 3d09 a1be d379 88bd 66a0 6abe 2ba9 1c3f
00000350: 4c7e a53e eb19 353d f9db d33d 8851 57be
00000360: 1573 98be 20e3 403e 0138 1d3d dfa2 753d
00000370: 0ce0 31bf d69f 163d 1961 6e3e 313d 82be
00000380: a672 e03c 80f2 5ebb e810 c4bd a7f7 583e
00000390: bc5a 02be 38e5 9d3d 1b30 d93e 2a35 a63d
000003a0: b0b0 e4bc f1e2 a93d 7c12 e43d 6dea 8d3d
000003b0: 48ef cc3d 30d8 8bbd 3f74 26be 4ea1 0c3d
000003c0: 23e3 50bf 3c7d 83bd 9f18 ce3e b15b 1abe
000003d0: 1e7a c4bd b8d3 043e 7aff 28be 603d 3dbe
000003e0: 1dfa d13e c3d6 cc3d 1ea2 433e 9b7f 23be
000003f0: b087 53be b0c7 40be 2f54 e4bc e5a5 0a3f
-0.1685926 -0.35523513 0.04085495 0.2776201 -0.346596 -0.17434357 -0.18082806 -0.038254593
-0.299345 -0.19234928 0.11112895 -0.09649142 0.29729736 -0.18210067 -0.67755646 0.16095713
0.0024401022 0.40516847 -0.07755718 0.33739546 0.086846195 0.31767812 0.2780053 0.45131567
-0.047466237 0.083824344 -0.059072543 -0.20699178 0.0650328 -0.21935493 -0.029375697 -0.23553835
0.005435479 -0.0020946818 -0.0053495527 -0.0914864 -0.16735213 0.1677454 0.15684691 -0.06187564
0.09966231 -0.16898265 0.03710991 -0.03963015 0.28654295 0.16486986 0.2512759 -0.20107451
-0.116056174 -0.15415767 -0.19027174 0.12085929 0.28815106 0.062692866 -0.22022825 0.4427454
-0.3559874 0.16191198 -1.0538696 0.42686847 -0.01818754 -0.1400976 0.13398649 -0.4402751
0.15531082 0.019227277 -0.08205064 -0.34717724 -0.15909858 -0.15042001 0.23418626 -0.16363737
0.31697607 -0.45883965 -0.20969044 -0.0653293 0.030469647 0.0645556 0.2546089 0.13500531
-0.10479406 -0.24379148 0.045926332 0.3432339 -0.09382994 0.10925 -0.6107447 -0.02918141
0.25252914 -0.13355432 0.072726876 -0.1411845 -0.32940155 -0.44937065 0.4361725 -0.48102424
0.2026288 -0.15344268 -0.216224 -0.08041341 0.1575155 -0.13423386 -0.27302575 -0.7890598
-0.15053414 0.050288472 0.15757258 0.23282388 -0.43080622 0.08874671 -0.24595381 -0.018202558
-0.53297853 0.02355756 0.09480379 0.27776402 0.034609508 0.11392047 0.1766601 0.17268896
-0.24670048 0.020706477 0.03636783 -0.025208602 -0.026688369 0.04170461 -0.06863119 -0.16921726
0.022752915 0.033555128 -0.13854744 -0.1897615 0.28939477 0.037432615 -0.02384953 0.22444598
0.47554317 0.19740245 0.032145336 0.2425865 -0.32887474 -0.056025412 0.11161375 -0.16721785
-0.22555895 -0.13902691 -0.14775097 -0.1509874 0.23544373 -0.2672847 -0.43334264 -0.06633823
-0.863648 0.040175475 0.3549718 -0.15980132 -0.75384444 -0.29828158 0.3297661 -0.61519575
0.00071789196 -0.11052545 0.046382055 0.10953054 0.07843911 -0.36416787 0.37716073 -0.21251819
-0.14736356 0.073640145 0.101577215 0.22852978 0.26344696 0.10273578 -0.14553623 0.10637403
0.26420563 0.060026314 0.38396025 -0.106822394 -0.3314189 0.3884433 0.031931218 0.700377
0.3300813 0.13286145 0.5870564 0.1623233 0.025109872 0.024725948 -0.15998998 0.38767853
-0.0034985037 -0.89391255 -0.89262056 -0.14021958 -0.6561001 0.056993153 0.038862195 0.24434012
0.12833571 -0.009533266 -0.5144581 0.18505901 0.29157758 -0.26967263 -0.029029222 0.042453308
-0.3145236 -0.06663861 -0.2291275 0.6119563 0.3232292 0.04421417 0.10344691 -0.21027195
-0.297753 0.18836641 0.038383488 0.05996978 -0.69482493 0.036773525 0.23279227 -0.2543731
0.027398419 -0.0034019053 -0.09573537 0.21188222 -0.12729925 0.07709736 0.42419514 0.08115609
-0.027916282 0.08295239 0.11136338 0.06929479 0.10006577 -0.06828344 -0.16255282 0.03433352
-0.81596583 -0.06420371 0.4025316 -0.1507404 -0.095936045 0.1297139 -0.16503707 -0.18480444
0.41011134 0.100019 0.19104812 -0.15966646 -0.2065723 -0.18826175 -0.027872173 0.54159385

arith.constant2 f4 [64, 64]
00000000: 6cd0 a2bd 1a63 0fbe 8ed3 82bc a661 043e
00000010: 931d 0fbe f60f 32be e913 073e 61e2 37be
00000020: f342 543e c6f3 b23d a56a 68bd 1ffc 32be
00000030: c4ed af3d 413d 2fbe 5638 903d 5833 cc3c
00000040: f64c db3b 8023 5fbe 650a dbbd 4bef e4bd
00000050: 0dbb 043d 3c21 7e3d 007e 4b3c 8c84 0cbe
00000060: a05f 513c a0c1 99bc c183 f0bd 5ab9 d1bd
00000070: 52d8 433e 9669 f83d 83e5 07be 21eb 5dbd
00000080: 0574 a8be 6d89 b1be 21b5 d0bc bb2b 043e
00000090: 1158 cdbd 5733 293e c7fa 18be e7b8 03be
000000a0: 520c febc 1f56 203e 5cc2 3e3e 7fde 07be
000000b0: 245c 14be 50fe e03c bac1 c53d 176f 2bbe
000000c0: f5e0 983d 5cad b9be bc0e e43d 1ef0 ab3d
000000d0: f10a 24be b389 f53d 4be7 6cbe 9527 d9bd
000000e0: 04b0 a3be 09ba 533e e009 1e3e 0f26 a5bd
000000f0: 5012 973c ce3f 02be 6579 40be 24e0 61be
00000100: ef92 463e be16 943d 1d9d 9fbc 7b28 e73c
00000110: 1acf 2e3f f31c b3bd 8737 41be 2b77 01bd
00000120: 70aa a63d de58 d8bd 6093 f73d 1a8c 793e
00000130: 2855 d63d 945f 943e 4ac1 a6bf 6e48 ae3e
00000140: 58d6 0b3c 7591 7abe 317e 813e 5822 12bd
00000150: 1119 e9bc 266f cabd d945 b23d d57f af3e
00000160: e127 113e eda1 553e bb52 263e adae 67bf
00000170: fee5 90be e886 993d b6ab c53d 8f02 d1bb
00000180: dbc9 94be 326b b0bd 8ded 2a3e dd3b 303e
00000190: 1ae9 c1bd 0af4 82be ecac 1e3d eede 06bf
000001a0: 7769 3e3f 0866 523d c2c6 6fbe d0be 5cbd
000001b0: 8500 153e 8e88 d0bd 53ea d9bd 594d cbbd
000001c0: 3aef 39bc 59f3 ba3e ed8f 9fbe 9fd9 ba3e
000001d0: dc93 a8be 593e 40bf d937 d6be 8f15 1fbe
000001e0: d7ae 4fbf 263d 37be fdbd 07be d119 063e
000001f0: f919 dfbd ffc7 57be eb75 f7bb 1b57 83bf
00000200: 3a88 4bbe b3d8 ee3e 1302 fabd 6b8f 993d
00000210: c6fa c23e 841d af3d 737a 45be 5116 783e
00000220: 526b 1e3c 3452 7b3d be9c 9fbe 4884 eabe
00000230: 82ca f53e 6987 c5be 4c65 2e3e 17a9 43bf
00000240: cba9 aabe 6e22 3d3e b783 17be e488 623d
00000250: 97e1 3fbd 3065 cfbc 0861 6bbd c70e 043f
00000260: 0ee1 803d e363 4f3e 1a8b 933d ee8f c2be
00000270: 4bc7 103e 0bf0 0c3d 7583 543e 8183 a83c
00000280: 9d08 2b3d ecb2 703e ec39 5f3e 1865 52bd
00000290: efcd 66be b2fb 96be 77dd 41be b37d 7b3e
000002a0: 0d2d 613e 8ab4 0fbe a74e 653e 482c f8bd
000002b0: 3f74 003d 56b1 1d3e 3403 503d f352 edbd
000002c0: 8ae9 a33e 4dee 1d3f d3b3 b53d bee3 463e
000002d0: 1283 303e 947c 7f3d c90c cbbb ca67 803d
000002e0: 01c2 12bc cfb5 0c3d 286e 9e3d 3fd1 0bbd
000002f0: 9dac 9c3c 9c50 1b3e cf19 f83d c893 a13e
00000300: e179 093e 0ee3 913e 691a 313f 9636 613e
00000310: 7adc 07bf 55a0 0bbe be5f 34be ca2e b43c
00000320: 0786 adbf 4e08 b7bd 739d 0cbc 1f30 163e
00000330: 37bb 0ebe 5aa6 e23d a038 d93b f058 cbbd
00000340: bbf0 91bd 3980 56bd 1290 79be 721e febd
00000350: af2d b1bf f48d 9fbd 10c9 55be a806 b0be
00000360: 9687 16be f103 173e a2c4 eb3d 3426 52bf
00000370: 26ce fe3d 4a70 943d 11e6 3bbe 3c27 a1bd
00000380: 77a3 f6bb e4d2 983e d2a2 eebe 806d c7bb
00000390: 03e5 fdbd b624 a13d 2eea 92bd f290 07bd
000003a0: 4a9a 58bf cc5f 42bf b087 2d3e 862b 0d3e
000003b0: 1d0e 8fbe 4b18 0bbf b004 1dbe 428d 203e
000003c0: 141f b33b dd8c 15bf b9eb 91ba 8db4 133d
000003d0: ec77 e63d a03e 3d3e 3907 08be 3102 e73c
000003e0: 685d 3ebd 41e9 323d 6b68 55bf 8bef d83c
000003f0: 61b6 a4bd 8dbe aebc b873 fa3c 7b7c 983e
-0.079499096 -0.14002648 -0.015970018 0.12927875 -0.13976125 -0.17388901 0.13191189 -0.1795745
0.20728664 0.08737902 -0.05674233 -0.17478989 0.08590272 -0.1711321 0.07041995 0.024926826
0.006692524 -0.21790886 -0.10695342 -0.11178454 0.032404948 0.062043414 0.012420177 -0.13722438
0.012779146 -0.018769085 -0.1174388 -0.10240431 0.19125488 0.12129514 -0.13271146 -0.054179315
-0.32901016 -0.3467516 -0.025476994 0.12907307 -0.10026563 0.16523491 -0.14939414 -0.12863503
-0.031011734 0.15657853 0.1862883 -0.1326847 -0.14488274 0.027465016 0.09656091 -0.16741596
0.07464782 -0.36265075 0.11135623 0.08395408 -0.16019799 0.11989155 -0.23135106 -0.10603253
-0.31970227 0.20676436 0.15433455 -0.080639 0.01844135 -0.12719652 -0.18796308 -0.22058159
0.19391988 0.072309 -0.019484097 0.028217545 0.6828476 -0.08745756 -0.18868838 -0.031607788
0.08137977 -0.10563825 0.120886564 0.24369851 0.10465461 0.2897917 -1.3027737 0.34039634
0.00853499 -0.2446955 0.2529159 -0.035677284 -0.028454335 -0.09884481 0.08704729 0.34277216
0.14175369 0.20862551 0.16242497 -0.9050091 -0.2830047 0.074964345 0.09651892 -0.006378479
-0.29060254 -0.08614196 0.16692181 0.17210336 -0.09468289 -0.25576812 0.03873913 -0.52683914
0.74379677 0.051366836 -0.23415664 -0.05389291 0.1455098 -0.10182296 -0.10640397 -0.09926862
-0.01134854 0.36513785 -0.31164494 0.36494157 -0.32925308 -0.75095135 -0.41839483 -0.15535568
-0.8112616 -0.1789442 -0.13256069 0.13095786 -0.10893626 -0.21072386 -0.0075518987 -1.0260957
-0.19876185 0.46649703 -0.12207427 0.07498058 0.3808195 0.085505515 -0.19284992 0.24227263
0.009669142 0.061357692 -0.31174272 -0.45804048 0.48006064 -0.38579872 0.17030829 -0.76429886
-0.33332667 0.18470165 -0.14796339 0.05530633 -0.046846 -0.025316805 -0.057465583 0.5158505
0.06292926 0.20252948 0.07204266 -0.38000435 0.14138524 0.03440861 0.20753272 0.020570518
0.04175626 0.23505753 0.21799439 -0.05136594 -0.22539495 -0.29488903 -0.18932138 0.24559669
0.21989842 -0.14033714 0.22393285 -0.12117821 0.03136086 0.1539968 0.050784305 -0.11588087
0.32014114 0.61691743 0.088721894 0.19422814 0.172375 0.062374666 -0.0061965925 0.06269796
-0.008957387 0.034353074 0.077358544 -0.0341351 0.019125277 0.15167469 0.121142976 0.3155806
0.134254 0.2849354 0.69180924 0.21993479 -0.53070796 -0.1363538 -0.17614648 0.021994967
-1.3556527 -0.08937131 -0.008582461 0.14666794 -0.13938604 0.11066885 0.0066290647 -0.09929073
-0.07125994 -0.052368376 -0.24371365 -0.12408151 -1.3842067 -0.07790747 -0.2087748 -0.34380078
-0.1470016 0.14747597 0.11512114 -0.82089543 0.124416634 0.0724798 -0.18349482 -0.078688115
-0.0075268107 0.29848397 -0.46608597 -0.0060860515 -0.12397196 0.0786833 -0.071735725 -0.033097215
-0.84610426 -0.75927424 0.16946292 0.13786134 -0.27940455 -0.54333943 -0.1533382 0.15678886
0.0054663513 -0.58418065 -0.0011132873 0.03606086 0.11253342 0.18480921 -0.13284005 0.028199287
-0.046475798 0.04367948 -0.83362454 0.02648141 -0.080425985 -0.021331096 0.030572757 0.2978247

arith.constant3 f4 [26]
00000000: 1829 10bf 3433 44bf 6db4 ac3f ae17 0640
00000010: 3131 e03c 0fce bf3c 53d8 2b3f 5223 8e3f
00000020: 5095 783e ffa2 9ebe 3ee2 12bf 7be1 f9bf
00000030: 84f2 20bf b3f1 41bf ffc9 9cbd b708 b03e
00000040: 6271 cd3b 9a72 1fbe 8020 5ebf e1b5 a03e
00000050: 8eb8 b9bd 063d 023e e36a 48bf 0632 e8bd
00000060: bb9d 23bd 45d0 46be
-0.56312704 -0.7664063 1.3492562 2.0951953 0.027367206 0.023413686 0.6712696 1.1104529
0.24275708 -0.3098373 -0.5737647 -1.9521936 -0.6287005 -0.7575943 -0.07655715 0.3438165
0.00626962 -0.15571061 -0.8676834 0.31388763 -0.09068404 0.12718591 -0.78288096 -0.11337666
-0.039945345 -0.19415386

arith.constant4 f4 [64]
00000000: 24db a0bf c0fb c9be 77ff 923f 8b02 883f
00000010: 269d c2bf 15a1 22be b5ad 37bd 577b 70be
00000020: 821e 8b3f acb2 48bd 2cb7 323e ec8d 9bbf
00000030: 09ef bbbf ed39 90bf 9612 b83f 59fd bbbf
00000040: cd30 23bf 20a7 7bbf 1038 d43f 0b22 eb3d
00000050: 93ab 7dbd 6a6e be3e e97a 2c3e 4a68 373d
00000060: 51a3 12be 2544 393f 82be 5fba 3a76 4dbf
00000070: 2b7f c33f eb42 f4be ec8a 4bbf 3c1a abbf
00000080: 7b82 3640 34a1 823f 1f5f 8dbe 2c7a 733f
00000090: 7713 653e 3288 9ebd 2226 223f d887 a7b9
000000a0: 7533 c33e d904 56bf 4f13 bd3f c959 f53e
000000b0: 66fb 45be 34ae 823d 74a8 df3f 0f39 aebf
000000c0: 9127 24be db24 3fbf d7d7 1ec0 a25c daba
000000d0: 393c 1c3f 951c 9c3f 9336 7dbd 0229 8fbf
000000e0: a846 413d 3289 58bf 9791 d5be 0638 19bf
000000f0: 88e4 3fbf dc6f 433e 05cb ec3e 7c55 36be
-1.2566876 -0.39449883 1.1484212 1.0625776 -1.5204208 -0.1588176 -0.044843394 -0.2348455
1.0868685 -0.04899852 0.17452687 -1.2152686 -1.4682323 -1.1267678 1.4380672 -1.468669
-0.6374634 -0.9830189 1.6579609 0.114811026 -0.061931204 0.37193614 0.16843762 0.044777192
-0.14320113 0.72369605 -0.0008535163 -0.80258524 1.5273184 -0.47707304 -0.7950885 -1.3367381
2.851714 1.0205445 -0.27611634 0.95108294 0.22370706 -0.07740821 0.63339436 -0.00031953934
0.38125196 -0.83601147 1.4771518 0.47920063 -0.19334182 0.06380883 1.7473283 -1.3611163
-0.16030718 -0.7466561 -2.4819238 -0.0016659687 0.6102939 1.2196223 -0.061819624 -1.118439
0.047186524 -0.84584343 -0.4171264 -0.5985111 -0.74958086 0.1908564 0.46248642 -0.17806047

sequential_1/dense_1_2/Add/ReadVariableOp f4 [64]
00000000: b437 5cbd 4948 60be 9f3c e6bf ae95 dfbf
00000010: 2f0b 983e dc1f febc 0721 8dbe a435 da3d
00000020: 7f9b 0740 fc04 1140 d6e1 0e40 75f9 df3f
00000030: c63f d3bf b9b4 e73f b21a f3bf 6031 9cbd
00000040: c6d3 15bf 53b1 903d 8b14 1340 e8d4 11c0
00000050: c45a ba3e 2a0a 0cc0 523e 53c0 dbdd 2cc0
00000060: 5c7f 6ebf 5c33 66bc 372d d6bd 93db ee3f
00000070: 68d1 bd3e b13f 8dbf 6a24 bbbd 8f2a 38bf
00000080: f65c 7bbd 92f2 f7bc 5958 9bbd a9a0 ef3f
00000090: 6b18 ddbc a587 0ec0 9962 1240 e4d5 5a3f
000000a0: 87c8 7ebd 5433 f0bd 7407 fabc 5c7d 96bf
000000b0: 6bf3 2340 c70c f2bd 0acd 3f3d 5c7c 1abd
000000c0: 8783 b63f 471d 90bd 47d3 ad3f ee47 92bf
000000d0: e419 2fc0 c0f5 f03f 179b 57bd 10c1 16bc
000000e0: 539d 3140 ab62 fcbc c1f3 de3e 372b a5bc
000000f0: 7f90 a6bd 4cda a2bc d2fb 78bc 4401 9cbd
-0.05376406 -0.21902575 -1.798725 -1.7467554 0.29696032 -0.031021051 -0.2756426 0.106547624
2.1188657 2.2659292 2.232534 1.7498003 -1.6503837 1.8102027 -1.8992522 -0.07626605
-0.58526266 0.07065072 2.2981288 -2.2786198 0.36397374 -2.1881204 -3.3006787 -2.701041
-0.93163085 -0.014050331 -0.10457843 1.8660759 0.37073827 -1.1035062 -0.09137805 -0.7193994
-0.06136795 -0.030267034 -0.0758521 1.8720905 -0.026989182 -2.227029 2.287268 0.8548262
-0.062202957 -0.1172854 -0.030521132 -1.1757007 2.561732 -0.11818843 0.0468264 -0.037716255
1.4258889 -0.07036834 1.3580102 -1.1428201 -2.7359552 1.8824997 -0.05263814 -0.009201303
2.7752273 -0.030808767 0.43545344 -0.020162208 -0.08133029 -0.019879483 -0.015196757 -0.07617429

sequential_1/dense_1/Add/ReadVariableOp f4 [64]
00000000: 0000 0000 c54c 5fc0 7209 89be fa7c 7e3f
00000010: 4e9c 4f3d 885f 84bf 0000 0000 bce7 1dc0
00000020: da54 4d3e 0000 0000 59d9 0ebf c51d bdbe
00000030: 9de6 9e3d 6ef0 f3bf 447c f73f 83a9 7dbf
00000040: 8ab6 1440 8fec 31c0 03d0 4940 0000 0000
00000050: fd0d 023f 0000 0000 eca3 c4b8 25ac 213e
00000060: 0000 0000 0000 0000 0000 0000 0b8e b33f
00000070: 4ded 1f3e b278 eebf 0000 0000 639f 22c0
00000080: 298b 35bf 443b 8b3f afa9 113f 0000 0000
00000090: 0353 25be 0c5c 3040 0000 0000 7728 38c0
000000a0: 13ae a33e 4a4b e43e 2a86 823f 62e2 6ebe
000000b0: e70b 72be f494 4b3e 0000 0000 4cbd 1ac0
000000c0: b2f5 583f c00e 203e 438b 16c0 91f5 cfbf
000000d0: 9dba 1abf a1a8 1740 9fa9 f63d c3ca d8be
000000e0: 53e1 a73f cc0a a53e 17ba 693f 46f7 01c0
000000f0: 567b 1fc0 5422 d73f a26e 1640 5712 45c0
0.0 -3.4890606 -0.2676502 0.9940945 0.050686173 -1.0341654 0.0 -2.467269
0.200519 0.0 -0.55800396 -0.36936775 0.0775883 -1.9057748 1.9334798 -0.9908678
2.3236413 -2.7800634 3.153321 0.0 0.50802594 0.0 -9.376541e-05 0.15788324
0.0 0.0 0.0 1.4027723 0.15617867 -1.8630583 0.0 -2.5409782
-0.70915467 1.0877461 0.5689954 0.0 -0.16144948 2.755618 0.0 -2.8774698
0.31968746 0.4458869 1.0197194 -0.23328546 -0.23637353 0.1988104 0.0 -2.4178038
0.847499 0.15630627 -2.3522499 -1.6246816 -0.60441 2.3696673 0.120440714 -0.42342195
1.3115638 0.322348 0.91299576 -2.0307174 -2.4919028 1.6807351 2.3505025 -3.0792444

sequential_1/dense_1/MatMul f4 [64, 5]
00000000: 8ece 4ebe e997 0bbe 5c7e 033e b668 69be
00000010: 479d 19be 6f6c 27bd 877f cbbd a336 f33c
00000020: 841d 3f3e 10bb 893c d3cd 6d3c 5e9a f93e
00000030: bb22 8fbe 96b6 c4bd 5de6 13be d663 d13d
00000040: 167c 803c 586f debe 3923 a93d 3b3a 533e
00000050: 6062 d53d 8c3c bbbf 19cf 85be 7023 8e3c
00000060: de8a d43d a618 68be 8e3f dc3e eea1 f1bd
00000070: 7cf1 9abc 7a68 0e3c d494 08be 34f7 8b3d
00000080: 1c31 8dbe ae30 8ebe 749a b2bd 8729 45be
00000090: 23cd 983e 2e8b c43d d623 8cbd aff7 edbc
000000a0: c6e6 4b3e 9322 3e3f 3290 99bf 196d 8dbe
000000b0: d418 613e b8fe 16bd 0674 88bd 2814 3dbd
000000c0: 3749 86be 7962 67be d975 733e e5e4 2abe
000000d0: 1d5c a23e 1a21 c9be e7a7 1ebb 8289 3e3e
000000e0: d8c6 2cbe f221 1e3a f8e7 a5be 0429 963e
000000f0: 45e1 913e ce16 ecbe c3d6 a9bf 1cd4 30bd
00000100: d6b8 25bc 63f1 143e 0889 41be 0bfd ac3d
00000110: f27c 55be 46d7 653e 2f31 b2be c986 0b3e
00000120: 5015 d93d 948d bb3d 5ec2 193d 4fa9 fb3e
00000130: 835b f3bd 23de 963d a2ef c2be d424 243d
00000140: f9a8 d8bd c323 90bd 41a0 4dbe 7ecd 813b
00000150: 158d ca3e f5e5 84bd 85c3 8bbe ad78 243e
00000160: 6930 873e 0383 9bbc 9666 3dbe 0c7c 58be
00000170: e57d 8a3e d556 713d 9603 953d cd3c 92be
00000180: 383c 403d 06e9 513e 7b9e 84be 70a1 52bd
00000190: dfbe 063e 8876 973d 5b70 963e ff3d 71be
000001a0: bc34 8fbf 0539 80be d464 0abe 407d 45bd
000001b0: fcff e6bd 7bb5 13be 9c76 c73d eb99 36be
000001c0: 6c33 783e 79df 61be b670 95be 7c00 683c
000001d0: 7a04 82be d4aa c1bf f5d7 143d dfdf 1f3e
000001e0: 00b5 e6bb 9051 343d 6e1d 9cbd 5248 8dbd
000001f0: ec4f 95bd 7185 5cbe de52 80be f271 36be
00000200: 684c 39be e698 4fbe 5136 29be e40c f7bd
00000210: 2060 903d e07a a1bc 801f e43b 29d7 19bf
00000220: acd8 01be dd4f 2d3e 892b 1cbd 801e 6b3e
00000230: 3991 b6bd 3185 113f 64f2 c2bf f9cb cfbd
00000240: 5a22 873e 4ba5 0c3e dce3 823c 7af1 a0be
00000250: 768a 453e 8e53 843d b2e0 81be 607e 1c3c
00000260: 1c9f 3dbe 1c85 65be 4690 29be c9e3 f13c
00000270: 8698 8e3c bece 00be d9a7 913d 9082 9d3d
00000280: eabc 123d ef9d 95bb e3e2 2fbe f96a 503d
00000290: 561d 18be 27f7 a13e 90b3 59be 6e81 9e3d
000002a0: c9b9 2a3e 182e bebe 2b3b 09be a171 3abf
000002b0: cb01 8e3e e236 cc3c f270 cc3d 585d ccbd
000002c0: aa49 943e dd55 68be a6f5 52be 39fd 10be
000002d0: 5221 9f3e 6bab 5a3e 0b6d 81be bff3 6abe
000002e0: b099 283d f649 88be 6ac0 5fbe 9f9c aa3e
000002f0: cce4 e53d b113 6a3c 5a6c 95be 0cad d13d
00000300: d4bb 5bbd 0c31 79bd 3c4f 68bd 5539 19be
00000310: e6ac 3f3d 3502 4f3e 5437 c5bd 528d 9f3d
00000320: 59e8 48be e672 d5bf eea7 28be f73b 8d3d
00000330: eaa4 ae3e 7a0d 993e 1874 613e e457 82be
00000340: be2b 13bb d146 77bf 34f2 ccbe 5420 203e
00000350: ad4e 3dbe f671 4d3e f393 5e3e 8b74 013e
00000360: df7e b2bb a79c 8fbc 92f9 64be f723 65bd
00000370: fe63 acbd 20ce 823e 20ce a53e 5e55 cfbe
00000380: 8cb5 dabb d5a4 ebbe 5eb1 4d3e e014 16bc
00000390: 19cf a43e 0e00 8cbe 087d 1bbe 9881 4cbe
000003a0: 3ea6 5dbe 4e14 0abe 9c1a c7bd 8871 c7bc
000003b0: 5124 d43c b5f4 973e f623 89be cb30 6b3d
000003c0: 3fe1 dabe 2301 e23d 8ddc b1bd 36e9 033f
000003d0: 3257 81be 41f8 b53e c51f 82bf 9236 85bf
000003e0: 939f 423c 2d73 d8bd c1ce 2e3e f957 da3d
000003f0: 97a1 81be d8c6 863e ee21 1bbe 5ae4 f7bc
-0.20195982 -0.13632168 0.12841171 -0.2279385 -0.15001403 -0.040874895 -0.09936433 0.029689139
0.18663603 0.016812831 0.014514404 0.48750585 -0.27956185 -0.09605138 -0.14443345 0.1022412
0.015684169 -0.43444324 0.08258671 0.20627682 0.10419154 -1.4627852 -0.26134565 0.017350882
0.10378049 -0.22665653 0.43017238 -0.11798464 -0.018913977 0.008691901 -0.13338023 0.0683426
-0.2757653 -0.27771515 -0.08720866 -0.19254123 0.29844007 0.09596859 -0.06842773 -0.029048769
0.19912252 0.74271506 -1.199713 -0.27622297 0.21982127 -0.036864012 -0.06662755 -0.0461618
-0.26227733 -0.22596158 0.23775424 -0.16688879 0.31710902 -0.39283067 -0.0024208964 0.18607143
-0.16872728 0.000603228 -0.3240354 0.29328167 0.2849218 -0.4611115 -1.3268665 -0.043171033
-0.010114869 0.14545207 -0.1889993 0.084467016 -0.20848444 0.22445402 -0.3480315 0.13625635
0.10599768 0.09157863 0.03753888 0.4915261 -0.11882689 0.07366588 -0.3807345 0.040074185
-0.10579104 -0.07038071 -0.20080663 0.003961264 0.39560762 -0.06489173 -0.27297607 0.16061659
0.26404122 -0.01898337 -0.18496165 -0.2114107 0.27049175 0.0589207 0.072760746 -0.28562012
0.04693243 0.20499048 -0.2590216 -0.05142349 0.13158749 0.07395655 0.29382595 -0.23558806
-1.1187968 -0.25043502 -0.13515025 -0.04821515 -0.11279294 -0.14424698 0.0973942 -0.17832153
0.24238366 -0.22057904 -0.29187554 0.014160272 -0.2539404 -1.5130258 0.036338765 0.15612744
-0.00704062 0.044023097 -0.07622801 -0.0689856 -0.072906345 -0.21535279 -0.25063223 -0.17816904
-0.18095553 -0.2027317 -0.16524626 -0.120630056 0.070495844 -0.019711912 0.006961763 -0.60093933
-0.1268031 0.16924997 -0.038127456 0.22960854 -0.08914418 0.5684386 -1.5230222 -0.101463266
0.26393396 0.1373493 0.015977792 -0.31434232 0.192911 0.06461249 -0.2536674 0.0095516145
-0.18517727 -0.22414058 -0.16558942 0.029527562 0.017406713 -0.12578866 0.071120925 0.076909184
0.035824694 -0.0045659463 -0.17176394 0.050883267 -0.14854941 0.31633875 -0.21259904 0.077395305
0.16672434 -0.37144542 -0.13401477 -0.72829634 0.27735743 0.024928514 0.0998248 -0.099787414
0.2896245 -0.22689004 -0.2060152 -0.14159097 0.3108011 0.21354453 -0.25278506 -0.22944544
0.041162193 -0.26618928 -0.21850744 0.33322617 0.1122528 0.014286921 -0.29184228 0.10238084
-0.053645924 -0.06083779 -0.05671619 -0.14963277 0.04679575 0.20215686 -0.096296936 0.077906266
-0.19619884 -1.6675689 -0.1647031 0.06896203 0.34110194 0.29893094 0.22016943 -0.2545768
-0.0022456492 -0.9659243 -0.40028536 0.15637332 -0.18487044 0.20063004 0.21736126 0.12642114
-0.005447253 -0.017530752 -0.22360829 -0.055942502 -0.084175095 0.25547886 0.32383823 -0.40494817
-0.006674474 -0.46024194 0.20087191 -0.00916025 0.32189253 -0.27343792 -0.15184414 -0.19971311
-0.21645448 -0.13484308 -0.09721872 -0.024346128 0.025896223 0.29678884 -0.2678525 0.05741958
-0.42749974 0.11035373 -0.08684645 0.51527727 -0.25261837 0.35540965 -1.0165945 -1.0407279
0.011878866 -0.10568843 0.17071058 0.10661311 -0.25318596 0.2632358 -0.15149662 -0.030260254
