model.tflite (tflite, 5216 bytes, 8 tensors)

arith.constant f4 [5, 16]
0	0x3f07c167	0.53029484
1	0x3fa4f00d	1.2885758
2	0x3ec3ffa1	0.38280967
3	0x3e270c4c	0.16313285
4	0xbed6d7cc	-0.41961515
5	0xbed294a2	-0.41129023
6	0x3e9f8ec6	0.31163615
7	0xbf017d34	-0.5058167
8	0xbef595c0	-0.47965813
9	0xbeb3199d	-0.3498048
10	0x3fec49c9	1.8460017
11	0x3e286f55	0.1644872
12	0xbef5ece3	-0.48032293
13	0x3ddc53b0	0.107581496
14	0xbeba8829	-0.36432007
15	0x3ea4a92d	0.3216032
16	0x3e236e40	0.15960026
17	0x3d7c9cf2	0.061673112
18	0x3d97d6cb	0.074140154
19	0x3df3f0b8	0.11911148
20	0x3eed248a	0.4631694
21	0x3e5b8fc4	0.21441561
22	0xbd954b5c	-0.07289764
23	0x3ec061c8	0.375746
24	0xbefd0ae1	-0.49422362
25	0x3ef8422b	0.48487982
26	0xbf300bbb	-0.687679
27	0x3c7a3093	0.01527037
28	0xbe39308b	-0.18084924
29	0xbf027ead	-0.5097454
30	0x3e1c7966	0.15280685
31	0xbe077957	-0.13229881
32	0x3e8a1660	0.26970196
33	0x3ed8c882	0.42340475
34	0x3e11bc82	0.14232066
35	0x3d21cba0	0.039500833
36	0x3e803781	0.25042346
37	0x3dd34432	0.103157416
38	0x3d883190	0.06650078
39	0xbe267b1e	-0.16257903
40	0x3dd43700	0.10362053
41	0x3ef9e4c9	0.48807362
42	0x3f1915c7	0.59798855
43	0x3e197e65	0.14989622
44	0x3ecc0ac6	0.3985197
45	0x3eae68fa	0.34064466
46	0x3ef8864c	0.4853996
47	0x3d24a636	0.040197574
48	0xbee06ab1	-0.438314
49	0xbfc418d6	-1.5320079
50	0xbe353be2	-0.17698625
51	0x3d277540	0.040883303
52	0x3f0eae49	0.5573469
53	0x39a059d8	0.00030584517
54	0xbd24c0e8	-0.040223032
55	0x3ecb0316	0.39650792
56	0xbd9add78	-0.07561773
57	0x3e75f924	0.24020821
58	0xbe24cef0	-0.16094565
59	0x3df67ca6	0.120354936
60	0xbe8a7a28	-0.27046323
61	0xbecec356	-0.40383404
62	0x3e83c9c7	0.2573988
63	0x3d5b5965	0.05355205
64	0x3e0ab7f0	0.13546729
65	0x3f32e744	0.69884133
66	0x3f0803f1	0.53131014
67	0xbef2689f	-0.47345445
68	0x3e8c766e	0.27434105
69	0xbda825d2	-0.08210339
70	0x3e11c9d4	0.14237148
71	0xbe081218	-0.13288152
72	0xbcfd6380	-0.030931234
73	0xbe72c6fd	-0.2370872
74	0xbf449cb9	-0.7680164
75	0x3e60b1d1	0.21942832
76	0x3f1a955e	0.60384166
77	0xbe488ed2	-0.19585732
78	0xbeff983e	-0.4992084
79	0x3e73c530	0.2380569

arith.constant1 f4 [16, 16]
0	0xbeb29647	-0.34880278
1	0x3d9be2ac	0.076115936
2	0x3d336a68	0.04380265
3	0x3ddfc5ac	0.10926375
4	0xbea09f21	-0.31371406
5	0x3ed52915	0.41632906
6	0x3de91c24	0.113823205
7	0xbe7b4be2	-0.24540666
8	0x3ea3d757	0.3200023
9	0xbed11448	-0.40835786
10	0x3e503776	0.20333657
11	0xbb7f6580	-0.003897041
12	0x3e958bcd	0.29208222
13	0x3e7729fa	0.24137107
14	0xbdbec0cc	-0.09314117
15	0xbe355fa8	-0.17712271
16	0x3f2bf0c7	0.6716427
17	0xbe0780ba	-0.13232699
18	0xbed5eb28	-0.41780972
19	0xbf0b1a59	-0.5433708
20	0xbda76c84	-0.081749946
21	0x3e1ecaec	0.15507096
22	0xbe2ec8e8	-0.17068827
23	0x3ed34c0d	0.4126896
24	0xbd989328	-0.07449943
25	0xbed389b4	-0.41315997
26	0xbe70108b	-0.2344381
27	0x3dc157e1	0.0944059
28	0xbe72e84e	-0.2372143
29	0xbc01d576	-0.007924428
30	0xbe9af38a	-0.3026393
31	0xbe508180	-0.203619
32	0x3df48668	0.119396985
33	0xbe8d6ef7	-0.27623722
34	0xbe41e0b2	-0.1893337
35	0xbe44cd45	-0.19218929
36	0xbe89ec08	-0.2693789
37	0x3e9c44d0	0.3052125
38	0x3ed7a357	0.42116806
39	0xbd54a5b7	-0.05191585
40	0xbe0c9ef2	-0.13732508
41	0x3e688286	0.2270604
42	0xbea88668	-0.32915044
43	0x3e22ebae	0.15910217
44	0xbe9a716a	-0.30164653
45	0xbe48941b	-0.19587748
46	0xbdf94be0	-0.12172675
47	0x3e231012	0.15924099
48	0xbe953d02	-0.29148108
49	0x3ed9972f	0.42498156
50	0x3ed54cef	0.41660258
51	0x390fa800	0.00013700128
52	0x3dd91574	0.10599795
53	0x3df8f19c	0.12155458
54	0xbe31a182	-0.17346767
55	0xbe08ae74	-0.13347799
56	0x3e2d5802	0.16928104
57	0x3dc8db04	0.09807399
58	0x3d84da9c	0.06487009
59	0xbe2a6096	-0.16638407
60	0xbed8a6dd	-0.42314807
61	0xbed9ca9b	-0.42537388
62	0xbe9b0eb5	-0.30284658
63	0xbec9b8e4	-0.39398873
64	0xbef53ae8	-0.47896504
65	0x3ebf7617	0.37394783
66	0x3e73bbef	0.2380216
67	0xbe262fb8	-0.16229141
68	0xbde8d85c	-0.11369392
69	0xbdbbfe32	-0.09179343
70	0x3e3c1c8a	0.18370262
71	0xbe84ad46	-0.25913447
72	0x3e7ec496	0.24879679
73	0xbe9c6790	-0.30547762
74	0x3e3d30b6	0.18475613
75	0x3ed08fb1	0.40734628
76	0x3eb46887	0.35235998
77	0x3f534929	0.8253351
78	0x3e704a14	0.23465759
79	0xbe34dc88	-0.17662251
80	0xbe1db062	-0.15399316
81	0xbe74634c	-0.23866004
82	0x3e08a166	0.13342819
83	0x3e22a745	0.15884121
84	0xbe34c3fc	-0.17652887
85	0xbdc8cd88	-0.09804827
86	0xbe230230	-0.15918803
87	0xbeecb2e4	-0.46230233
88	0xbeb20fca	-0.3477767
89	0x3e1a546e	0.1507127
90	0x3d8bb6bc	0.06821963
91	0x3da212d9	0.07913751
92	0x3ecd7b47	0.40133116
93	0x3ea199e2	0.31562716
94	0x3e608dff	0.21929167
95	0x3eb411c7	0.35169813
96	0x3e91f1e7	0.2850487
97	0xbe9847ea	-0.29742366
98	0x3dea0fec	0.11428818
99	0x3e51d00e	0.20489523
100	0xbddc74d0	-0.10764468
101	0x3d84e220	0.064884424
102	0xbb71cf80	-0.0036897361
103	0xbe9374db	-0.2880009
104	0x3ecf62b9	0.40505007
105	0xbe7a64bd	-0.24452491
106	0xbd5d1de8	-0.0539836
107	0xbe728fd5	-0.2368768
108	0xbe58aaa7	-0.21158849
109	0xbcd593a0	-0.02607137
110	0xbeb3fce2	-0.35153872
111	0x3ebdad45	0.37046257
112	0xbd1dcd10	-0.03852564
113	0xbda2b6a0	-0.07944989
114	0x3d752698	0.05985126
115	0x3e96ed93	0.2947813
116	0xbe28b89c	-0.16476673
117	0xbe196d10	-0.1498301
118	0x3ea0e5d5	0.31425348
119	0xbd15e258	-0.03659281
120	0xbe0b3e18	-0.13597906
121	0x3eb51221	0.35365394
122	0xbea6cfe3	-0.3258048
123	0xbe5362bc	-0.20643133
124	0x3ecbab6f	0.3977923
125	0x3e2c0542	0.1679888
126	0xbd040438	-0.032230586
127	0x3ed8404b	0.42236552
128	0xbe06aeb0	-0.13152575
129	0xbe99240c	-0.29910314
130	0x3dd578b4	0.10423413
131	0x3e3297ea	0.17440763
132	0x3e5dbdd2	0.21654442
133	0xbecae02a	-0.3962415
134	0x3df0e2cc	0.11762008
135	0xbe3b5a46	-0.18296155
136	0x3dd4717c	0.10373208
137	0xbe48d0eb	-0.19610946
138	0x3ea689a9	0.325269
139	0xbe7d9396	-0.24763331
140	0xbe5f3ae1	-0.21799804
141	0x3d553270	0.052050054
142	0xbe44cb8a	-0.19218269
143	0x3eb86781	0.36016467
144	0xbc54d760	-0.0129908025
145	0xbeb7af3b	-0.35875878
146	0x3e6fcbe9	0.2341763
147	0xbeb432a4	-0.35194886
148	0xbeac544b	-0.3365806
149	0xbda9f7d9	-0.08299226
150	0x3dc09a84	0.094044715
151	0xbe41770a	-0.18893066
152	0xbb079480	-0.0020687878
153	0x3e52584a	0.20541492
154	0x3e6583fa	0.22413626
155	0x3d883a8f	0.06651794
156	0xbea749ac	-0.32673395
157	0x3debc284	0.1151171
158	0x3b9eaf20	0.004842654
159	0xbdbccf50	-0.09219229
160	0x3aca29ea	0.0015423868
161	0x3edb3cb9	0.42819765
162	0x3ded39b8	0.115832746
163	0xbf0b7ce8	-0.54487467
164	0x3e9c7f49	0.3056586
165	0xbe0280dd	-0.1274447
166	0x3d9cffcc	0.07665977
167	0x3c4f8880	0.0126668215
168	0x3dbbe3a4	0.091742784
169	0xbe49673a	-0.19668284
170	0x3e18910a	0.14899078
171	0x3c986afc	0.018605702
172	0xbe87af7b	-0.26501068
173	0x3f607756	0.8768209
174	0xbe1e5938	-0.15463722
175	0x3eafdb61	0.3434706
176	0xbec60ab8	-0.38680053
177	0x3e2690ee	0.16266224
178	0x3e054e1e	0.1301808
179	0x3e83e42c	0.2576002
180	0x3eaa7301	0.33290866
181	0xbc616426	-0.013756787
182	0xbeb484ff	-0.35257718
183	0xbd8bd93f	-0.06828546
184	0x3e7175ce	0.23580095
185	0x3ec605c5	0.38676277
186	0x3eabe6c9	0.33574513
187	0xbeb9c97c	-0.36286533
188	0x3c752860	0.014963239
189	0xbe4b23e2	-0.19837907
190	0x3e70e3d3	0.23524408
191	0x3e59e1d2	0.2127755
192	0x3eb07f7b	0.3447226
193	0x3de83d04	0.11339763
194	0xbe9516d0	-0.29118967
195	0x3e9fe00f	0.3122563
196	0xbe003e66	-0.12523803
197	0x3c3e95e9	0.011632421
198	0x3e3efec2	0.1865187
199	0x3d01eb10	0.031718314
200	0xbc7e2aa0	-0.015513092
201	0x3ea17217	0.31532356
202	0x3df3e424	0.11908749
203	0xbc5b858d	-0.01339854
204	0xbd8cd53c	-0.06876609
205	0xbf0300e3	-0.5117323
206	0x3e89b350	0.26894617
207	0x3e8218fb	0.25409684
208	0xbea789aa	-0.32722217
209	0x3cf611d0	0.03003779
210	0x3dae542c	0.08512148
211	0x3e9550c7	0.2916319
212	0x3e44390a	0.19162384
213	0xbeb827dd	-0.35967913
214	0xbe35a4c6	-0.17738637
215	0xbe249298	-0.16071546
216	0xbd0205c8	-0.031743795
217	0xbdf35a30	-0.11882436
218	0xbdbd4864	-0.09242323
219	0x3dbfe73c	0.09370276
220	0x3d337e20	0.043821454
221	0xbe95480c	-0.2915653
222	0xbec0a301	-0.37624362
223	0x3ec98b4d	0.3936409
224	0x3d856f48	0.06515366
225	0x3ecd6c75	0.4012181
226	0xbe65e511	-0.22450663
227	0xbe172681	-0.14760782
228	0x3e59c41e	0.21266219
229	0x3ebb795e	0.36616033
230	0x3e09db5a	0.13462582
231	0xbe8057bc	-0.25066936
232	0x3e0d550e	0.13801977
233	0xbdc4db28	-0.09612113
234	0x3dd27e44	0.102779895
235	0x3e3b61a6	0.18298969
236	0xbea775a6	-0.32706946
237	0x3ea1885d	0.3154935
238	0x3e03ce62	0.12871698
239	0xbec00ba4	-0.3750888
240	0xbebbf51b	-0.36710438
241	0x3eb64c17	0.35604927
242	0xbec9d346	-0.39419
243	0x3e59a59f	0.21254586
244	0xbdd162e8	-0.10223943
245	0x3e480bb4	0.19535714
246	0x3ebe29cb	0.3714126
247	0xbebe30f6	-0.3714673
248	0xbe73ac83	-0.23796277
249	0x3d515970	0.051110685
250	0x3e4cdd42	0.20006278
251	0x3ed00bdb	0.40634045
252	0xbec3a20c	-0.3820957
253	0xbe6675a1	-0.2250581
254	0x3e681a24	0.22666222
255	0x3eb194e9	0.34683922

arith.constant2 f4 [16, 16]
0	0xbd239b4c	-0.039943025
1	0xbe475059	-0.19464244
2	0x3e827ccb	0.25485834
3	0x3e993b8d	0.29928246
4	0xbea64a0f	-0.32478377
5	0x3c537520	0.012906343
6	0xbe5fb43a	-0.21846095
7	0xbebd607d	-0.36987677
8	0xbeaf89c2	-0.34284788
9	0x3e01fb10	0.12693429
10	0x3ea510ad	0.32239285
11	0xbe79e6bf	-0.24404429
12	0x3ea6df85	0.32592407
13	0xbea11cd8	-0.3146732
14	0x3e3ae109	0.18249907
15	0xbe06c858	-0.13162363
16	0x3ecceaef	0.4002299
17	0xbea46075	-0.3210484
18	0xbe90b6ee	-0.28264564
19	0x3df61564	0.12015799
20	0xbeb899f3	-0.36054954
21	0x3eb8b9b5	0.36079183
22	0xbea3d0f1	-0.31995347
23	0x3d66fab0	0.056391418
24	0x3e8c4923	0.2739955
25	0xbecb1a11	-0.39668325
26	0xbe652bc8	-0.22379982
27	0x3e299c7a	0.16563597
28	0x3e1f0242	0.15528205
29	0xbe1eed48	-0.15520203
30	0xbd9a0398	-0.07520217
31	0xbec84ac0	-0.3911953
32	0xbdcec489	-0.1009608
33	0xbeb879e8	-0.36030507
34	0x3da6ec04	0.08150485
35	0x3ce80cc9	0.028326409
36	0xbe89ec1f	-0.2693796
37	0x3ed95c3b	0.4245318
38	0x3d9c8133	0.0764183
39	0x3ef3f8b7	0.47650692
40	0xbbd56780	-0.0065125823
41	0x3e3178c5	0.17331226
42	0x3c0dac33	0.0086470125
43	0x3ea984eb	0.3310922
44	0x3e6b1c04	0.22959906
45	0x3e415f4a	0.18884006
46	0xbe7009c1	-0.23441221
47	0x3dc99f2c	0.09844813
48	0xbec3e6df	-0.38262078
49	0xbe940015	-0.28906313
50	0xbe841da6	-0.2580387
51	0xbe8eb1f7	-0.2787015
52	0x3e3141dc	0.1731028
53	0x3ed0c02b	0.40771613
54	0xbb86df2e	-0.0041159606
55	0x3dd4d88f	0.10392868
56	0xbe81b950	-0.25336695
57	0xbd219167	-0.039445307
58	0xbeec7f59	-0.4619091
59	0x3ed07934	0.4071747
60	0x3d6122b0	0.05496472
61	0x3e23a380	0.15980339
62	0x3ee6f81c	0.45111167
63	0xbdd247c4	-0.102675945
64	0xbecbcfa9	-0.3980687
65	0x3e19defa	0.15026465
66	0xbda35c88	-0.07976633
67	0x3e05b282	0.13056377
68	0xbed84584	-0.42240536
69	0xbdfdc0bc	-0.12390277
70	0xbd8cbc38	-0.068718374
71	0xbeaf7bd2	-0.34274155
72	0xbbfec2c0	-0.007774681
73	0xbec49736	-0.38396615
74	0x3e5d5b7a	0.21616927
75	0xbebfab75	-0.374355
76	0x3eb17afb	0.3466414
77	0xbe0284e2	-0.12746003
78	0x3e8f6939	0.28009966
79	0xbe8e8479	-0.27835444
80	0x3dcea16e	0.10089384
81	0x3ea41c01	0.32052615
82	0x3e0c5c3a	0.13707057
83	0x3c336b9d	0.01095095
84	0xbea3f597	-0.32023308
85	0xbe930cb0	-0.28720617
86	0xbeb4ad66	-0.35288543
87	0x3e29f50a	0.16597381
88	0xbea3df76	-0.32006425
89	0x3e31e5d5	0.1737283
90	0xbe21e430	-0.15809703
91	0x3eb06748	0.34453797
92	0x3e849c9d	0.25900736
93	0xbedd4742	-0.43218428
94	0x3cc71745	0.024303088
95	0x3eda0b0b	0.4258655
96	0x3e291116	0.16510424
97	0x3ea13249	0.31483677
98	0x3e01af86	0.12664613
99	0xbdca727c	-0.098851174
100	0xbe5c0844	-0.21487528
101	0x3e05583a	0.13021937
102	0xbe560163	-0.20898966
103	0xbeae081c	-0.33990562
104	0xbe33650e	-0.17519018
105	0xbbc87d00	-0.006118417
106	0x3eda66df	0.4265661
107	0xbe8a1d76	-0.26975602
108	0xbed5df0f	-0.41771743
109	0xbeb49747	-0.35271665
110	0x3e5739de	0.21018168
111	0x3eb67463	0.3563567
112	0xbd95339d	-0.07285235
113	0xbec1e9ce	-0.3787369
114	0xbbb4d2c0	-0.0055182874
115	0x3edec5e2	0.43510348
116	0x3da5f4af	0.0810331
117	0xbe028da0	-0.12749338
118	0x3eb71697	0.35759422
119	0x3ea32145	0.3186132
120	0xbea18e16	-0.31553715
121	0x3d3e76fa	0.046500184
122	0x3f2dec44	0.6793864
123	0xbe9dc37f	-0.30813214
124	0x3ea8c522	0.329629
125	0x3e837642	0.2567616
126	0x3e85a5b4	0.26102984
127	0x3ed583e9	0.41702202
128	0x3cd293b0	0.025705189
129	0x3c4aa960	0.012369484
130	0xbd8cda50	-0.06877577
131	0xbed1d56e	-0.40983146
132	0xbe3bf590	-0.18355393
133	0x3e82fc2d	0.2558302
134	0x3ddb3124	0.10702732
135	0x3e15ff0e	0.14648077
136	0xbed0176d	-0.40642872
137	0x3cad3ac0	0.021146178
138	0xbe103fde	-0.14086863
139	0xbec1c550	-0.3784585
140	0x3dfdf71c	0.12400648
141	0xbe9a695d	-0.3015851
142	0x3d3d0c00	0.046154022
143	0xbec288ae	-0.37994903
144	0xbe68701e	-0.2269902
145	0x3ea982df	0.3310766
146	0x3eaee471	0.34158662
147	0x3ea546ab	0.32280478
148	0xbeadbe97	-0.3393447
149	0xbed03393	-0.40664348
150	0xbe755ad2	-0.23960426
151	0xbde31a90	-0.11089051
152	0xbdecd340	-0.1156373
153	0xbe870987	-0.26374456
154	0xbe84cbfd	-0.2593688
155	0xbea5862d	-0.3232893
156	0x3e389306	0.18024835
157	0x3e6ff90e	0.2343485
158	0x3d19b0b8	0.037522048
159	0x3cd25440	0.02567494
160	0xbd106090	-0.03524834
161	0xbdb1a9f8	-0.08674997
162	0x3d4ea3f8	0.05044934
163	0xbe8f3c96	-0.2797591
164	0xbe3e903d	-0.1860971
165	0xbe71a2ae	-0.23597214
166	0xbedd7bdf	-0.4325857
167	0x3ea410e1	0.32044128
168	0x3d0caf30	0.03434676
169	0xbd5feb50	-0.05466777
170	0x3ec2052b	0.37894568
171	0x3eb76545	0.3581945
172	0xbeaf6269	-0.34254768
173	0xbe41d11d	-0.18927427
174	0x3e16b22e	0.14716408
175	0x3d413228	0.047166973
176	0xbdc0706a	-0.09396441
177	0x3ed23f01	0.41063693
178	0xbe74444f	-0.23854183
179	0x3ebd7c07	0.37008688
180	0x3e3fe342	0.18739036
181	0x3df227f4	0.11824027
182	0xbe531bd3	-0.20616083
183	0x3ec0863f	0.37602422
184	0x3ed86bb5	0.42269674
185	0x3eacbd8a	0.33738357
186	0xbe90cd4f	-0.28281638
187	0x3e9dfea1	0.3085833
188	0xbf07204e	-0.5278367
189	0x3ebf838e	0.37405056
190	0xbcf8d8b4	-0.03037677
191	0x3e647306	0.22309503
192	0x3ec7cd3b	0.39023766
193	0xbec574a1	-0.38565543
194	0x3e1b39e6	0.15158805
195	0xbece0e6f	-0.40245387
196	0xbe10e114	-0.1414836
197	0xbec8451c	-0.39115226
198	0xbd9117f0	-0.07084644
199	0x3df7339c	0.120703906
200	0x3dd17794	0.10227886
201	0xbec0f19f	-0.37684342
202	0x3e28b2ee	0.16474506
203	0x3eb158eb	0.34638152
204	0x3d753778	0.059867352
205	0xbdcc62d0	-0.099797845
206	0xbec06990	-0.37580538
207	0x3e7fa4fe	0.24965283
208	0x3d5ac490	0.053410113
209	0xbe46ad28	-0.19401991
210	0xbeaadaca	-0.33370048
211	0xbea6bca7	-0.32565805
212	0xbf1c945c	-0.6116388
213	0x3dd9d97c	0.10637185
214	0x3e91f315	0.2850577
215	0x3ef8d8c8	0.4860289
216	0xbe267706	-0.16256341
217	0xbe07b5be	-0.13252923
218	0x3f0e2fb0	0.55541515
219	0xbed12ad6	-0.40852994
220	0xbe9a8d31	-0.30185845
221	0xbb50c949	-0.0031858257
222	0x3eba89b0	0.36433172
223	0x3ea656c5	0.32488075
224	0x3e3c43c8	0.18385231
225	0x3ab19000	0.0013546944
226	0xbec1354f	-0.37735984
227	0x3cc65f51	0.024215372
228	0x3e9f6535	0.31131902
229	0xbdaae980	-0.08345318
230	0x3e3fbe1c	0.18724865
231	0xbeba5d70	-0.36399412
232	0xbe2dfb48	-0.16990387
233	0x3ea5668e	0.32304806
234	0xbf457f2a	-0.7714716
235	0x3e6907f6	0.22756943
236	0x3d74b48d	0.0597425
237	0x3e8a5ac1	0.27022365
238	0x3eca0f3e	0.39464754
239	0x3e7a0f5a	0.24419919
240	0x3e51a536	0.20473179
241	0xbe7d8498	-0.24757612
242	0xbd324b88	-0.043529063
243	0xbe72301c	-0.23651165
244	0xbe893b06	-0.26802844
245	0x3cc3d590	0.023905545
246	0x3e05d1c6	0.13068303
247	0x3e7e58ae	0.24838516
248	0xbde89130	-0.11355817
249	0xbd90d988	-0.07072741
250	0x3ea3fe0b	0.32029757
251	0xbec6128f	-0.38686034
252	0xbe0b37de	-0.1359553
253	0x3e0bb32a	0.13642564
254	0xbe65c951	-0.22440077
255	0x3e9c1ea7	0.30492136

arith.constant3 f4 [5]
0	0xbf7b0388	-0.98052263
1	0x3d24cc2d	0.04023378
2	0xbf113e35	-0.56735545
3	0x3f02b11c	0.510515
4	0x3fa9303d	1.3217846

arith.constant4 f4 [16]
0	0x00000000	0.0
1	0x3e0af8a7	0.13571416
2	0x3c1ba561	0.009499879
3	0x00000000	0.0
4	0xbe0a29e9	-0.1349255
5	0xbd074486	-0.033024333
6	0x00000000	0.0
7	0x00000000	0.0
8	0x00000000	0.0
9	0xbd0dcda3	-0.03461994
10	0x3d9fea96	0.078084156
11	0xbd0823dd	-0.033237327
12	0x3d130c6a	0.03590051
13	0x00000000	0.0
14	0xbd1e0c59	-0.038585994
15	0x3d0ab3d2	0.033862896

sequential_1/dense_1_2/Add/ReadVariableOp f4 [16]
0	0x3debeffb	0.11520382
1	0x00000000	0.0
2	0xbdd5e7d7	-0.104446106
3	0xbe2d57cb	-0.16928022
4	0x00000000	0.0
5	0x3d3c4ae0	0.045969844
6	0x00000000	0.0
7	0x3e3c9ba9	0.18418755
8	0x00000000	0.0
9	0x00000000	0.0
10	0x00000000	0.0
11	0xbcf76ea1	-0.03020412
12	0x00000000	0.0
13	0x3c1a1947	0.009405441
14	0xbe2a1a32	-0.16611555
15	0x00000000	0.0

sequential_1/dense_1/Add/ReadVariableOp f4 [16]
0	0xbbaf17a5	-0.005343395
1	0x00000000	0.0
2	0x00000000	0.0
3	0x3dca6152	0.098818436
4	0xbd754857	-0.05988344
5	0x00000000	0.0
6	0xbca134dc	-0.019678526
7	0xbcb87034	-0.02251444
8	0x00000000	0.0
9	0xbdcee648	-0.101025164
10	0x3e5e2663	0.21694331
11	0xbe6b0686	-0.22951707
12	0x3e118391	0.14210345
13	0xbd0a6337	-0.033786025
14	0xbd56287c	-0.052284703
15	0x00000000	0.0

sequential_1/dense_1/MatMul f4 [16, 3]
0	0x3eb55312	0.3541494
1	0xbed5ad02	-0.41733557
2	0x3a30e34c	0.0006747737
3	0xbe3c3208	-0.1837846
4	0xbf0310c9	-0.5119749
5	0x3ed6390e	0.41840404
6	0xbe57cda8	-0.21074545
7	0x3ca77500	0.020441532
8	0x3d0604f0	0.032719553
9	0x3e9a6cc4	0.30161107
10	0x3eeba794	0.4602629
11	0xbdc6c222	-0.09704997
12	0xbf02e08c	-0.5112388
13	0x3e701697	0.23446117
14	0x3e9e030e	0.30861706
15	0xbefdc83a	-0.49566823
16	0x3e5d09fc	0.2158584
17	0x3deba470	0.11505973
18	0x3e42f494	0.19038612
19	0x3dd6403b	0.1046147
20	0x3ef614c6	0.48062724
21	0x3ef2490c	0.47321355
22	0xbe93e8eb	-0.2888864
23	0x3eb0c69f	0.34526536
24	0xbeed29f9	-0.46321085
25	0xbef3a635	-0.47587743
26	0xbd9fc29c	-0.07800791
27	0x3ebe2383	0.37136468
28	0x3e8885dc	0.26664627
29	0x3edddd88	0.43333077
30	0x3f1b24dc	0.6060312
31	0xbdd7bb97	-0.10533827
32	0xbeaef9bd	-0.3417491
33	0xbe8920d6	-0.26782864
34	0x3ed6fe81	0.41991046
35	0x3e54e1c5	0.20789249
36	0xbe4c6f5d	-0.19964357
37	0x3ea32dee	0.3187098
38	0xbc921b04	-0.017835148
39	0xbc7fa0d7	-0.015602312
40	0x3e8648f7	0.26227543
41	0xbe99f6ce	-0.3007111
42	0xbe093e59	-0.1340269
43	0x3e48961d	0.19588514
44	0x3eb6cc66	0.3570282
45	0x3eba32e6	0.36366957
46	0xbe9bcdae	-0.3043036
47	0xbe77cece	-0.24199983
