model.tflite (tflite, 3260 bytes, 8 tensors)

arith.constant f4 [4, 8]
0	0x3e3a8034	0.18212968
1	0x3e3a054c	0.18166083
2	0x401eed03	2.483216
3	0x3f1a48d9	0.60267407
4	0x3cadf760	0.021236122
5	0x3d13b5d2	0.03606207
6	0x3ee65ffc	0.44995105
7	0xbf7a591a	-0.9779221
8	0xbcadc800	-0.021213531
9	0x3e12bdc0	0.14330196
10	0xbf09b7a2	-0.53795826
11	0x3ea55327	0.32290003
12	0xbef17e26	-0.47166556
13	0xbf8bf7d3	-1.0935005
14	0x3e8c8dd1	0.27451947
15	0xbd4dceeb	-0.05024616
16	0x3d5d10f0	0.05397123
17	0x3d950918	0.07277125
18	0xbf0f39a6	-0.5594734
19	0x3e024370	0.12721038
20	0x3e4a9ea8	0.19787085
21	0x3efe47e3	0.4966422
22	0xbea4f193	-0.32215557
23	0xbe8d7405	-0.27627578
24	0xbeb3f029	-0.35144165
25	0xbd4f2960	-0.050576568
26	0xc05e774f	-3.476032
27	0xbf1645e9	-0.58700424
28	0xbe33ff74	-0.17577916
29	0xbe8b2ddb	-0.27183422
30	0xbf60f760	-0.87877464
31	0x3f0fd5b1	0.5618544

arith.constant1 f4 [8, 8]
0	0xbf028eb0	-0.50998974
1	0xbf02ca0f	-0.51089567
2	0x3dd2b670	0.102887034
3	0x3f19bb73	0.6005165
4	0xbe88f106	-0.26746386
5	0xbf0e5103	-0.55592364
6	0x3e184898	0.14871442
7	0xbe92389b	-0.28558812
8	0x3ea68dda	0.325301
9	0xbf0d001d	-0.550783
10	0xbe98e2f2	-0.29860646
11	0xbdc2bdc8	-0.09508854
12	0xbe851f32	-0.26000363
13	0x3d2ba340	0.041903734
14	0xbdf241b8	-0.11828941
15	0xbf0c3197	-0.5476317
16	0xbf525e11	-0.82174784
17	0x3da8c4e8	0.08240682
18	0xbdeb70a4	-0.11496094
19	0xbddc5be2	-0.10759713
20	0xbdac6d94	-0.08419338
21	0x3eb8a406	0.3606264
22	0x3df6fe2b	0.120601974
23	0xbefa4b4c	-0.48885572
24	0x3ee32506	0.44364184
25	0xbeb12941	-0.34601787
26	0x3ef4de73	0.47825965
27	0x3db2e02d	0.087341644
28	0x3dd04380	0.101691246
29	0xbf24401b	-0.6416032
30	0x3eb5c1de	0.3549947
31	0x3c6b84e3	0.014374944
32	0x3dcf09d8	0.101092994
33	0xbe8beb3c	-0.27327907
34	0xbea5f271	-0.3241153
35	0xbf0b1547	-0.5432934
36	0xbf13c1c2	-0.57717526
37	0x3ece9342	0.40346724
38	0xbee73022	-0.4515391
39	0xbf18d4ab	-0.59699506
40	0x3ef0433f	0.46926305
41	0x396093c6	0.00021417355
42	0x3ea59f1e	0.3234796
43	0xbecfddad	-0.40598813
44	0x3d21a6e6	0.039465807
45	0x3eecc155	0.4624125
46	0x3eef44cb	0.46732172
47	0x3d62db21	0.05538476
48	0xbeba330f	-0.3636708
49	0xbdb0309e	-0.08603023
50	0x3ec0a91d	0.37629023
51	0xbe50e4f3	-0.20399837
52	0x3f356601	0.7085877
53	0x3dddff99	0.10839767
54	0x3e96f63e	0.29484743
55	0xbe7f93d4	-0.24958736
56	0x3ea21f0a	0.31664306
57	0x3e962d15	0.2933127
58	0xbbf9b733	-0.007620716
59	0x3ea7f06a	0.3280061
60	0x3ec3848a	0.38187057
61	0x3d9e3e27	0.07726698
62	0x3da8c173	0.082400225
63	0xbc8360d6	-0.016037386

arith.constant2 f4 [8, 8]
0	0x3c7d3006	0.015453344
1	0x3c38f840	0.011289656
2	0x3e42ab69	0.190107
3	0xbe195165	-0.14972456
4	0xbe57d08d	-0.2107565
5	0x3e77db29	0.24204697
6	0xbf1bd611	-0.60873514
7	0x3e7d8704	0.24758536
8	0xbf14ed90	-0.5817499
9	0x3f065cfd	0.5248564
10	0x3edb984b	0.42889628
11	0xbd8c9df6	-0.06866066
12	0xbdb0c5e9	-0.08631498
13	0x3f3b3ee5	0.73142844
14	0x3d965b80	0.07341671
15	0x3f1feef4	0.6247399
16	0xbf4369d8	-0.7633338
17	0x3d1d7960	0.03844583
18	0x3dd008ee	0.10157953
19	0x3e69d0df	0.22833584
20	0xbeff3ccd	-0.49851075
21	0xbee3c080	-0.44482803
22	0x3de49640	0.111614704
23	0x3ebad6e8	0.36492085
24	0xbe4b9af2	-0.19883326
25	0xbeb22e0e	-0.34800762
26	0xbcaa744d	-0.02080741
27	0xbe922424	-0.28543198
28	0x3f0f3f3c	0.55955863
29	0xbe41f175	-0.18939765
30	0xbe68ea04	-0.2274552
31	0xbe0c9dac	-0.13732022
32	0xbe2f4bb5	-0.17118724
33	0x3e2e4634	0.17018968
34	0x3e41316d	0.1886651
35	0x3f13780f	0.5760507
36	0x3ed9c2fe	0.4253158
37	0x3d5a82d2	0.053347416
38	0x3ec87082	0.39148337
39	0xbee1837d	-0.4404563
40	0xbf0030f0	-0.5007467
41	0x3eaca060	0.33716106
42	0x3f00038e	0.50005424
43	0xbf15948d	-0.58429796
44	0xbede5163	-0.43421468
45	0x3eada4fe	0.33914942
46	0x3d45aef0	0.048262537
47	0xbe3ebb97	-0.18626247
48	0xbe6c5739	-0.23080148
49	0xbf132d89	-0.57491356
50	0x3e748837	0.23880087
51	0xbea0c818	-0.3140266
52	0xbee65395	-0.44985643
53	0x3ef28c2f	0.47372577
54	0x3ee9a29a	0.45631868
55	0x3ef9db93	0.48800334
56	0x3ec50af8	0.3848493
57	0x3e837bc8	0.25680375
58	0x3eb18ee3	0.34679326
59	0x3e480ae3	0.19535403
60	0xbf0c58cb	-0.5482299
61	0xbe0d375e	-0.13790652
62	0xbd587370	-0.052844465
63	0xbe36107c	-0.17779726

arith.constant3 f4 [4]
0	0x400c453f	2.1917264
1	0xbf59e54a	-0.8511549
2	0xbeb936d1	-0.36174634
3	0xbf82cb69	-1.0218326

arith.constant4 f4 [8]
0	0x00000000	0.0
1	0x00000000	0.0
2	0x407ba2c7	3.9318101
3	0xbdb43754	-0.087996155
4	0x00000000	0.0
5	0x3fbd0dde	1.4769857
6	0x401bf871	2.4370387
7	0xc0648e21	-3.5711749

sequential_1/dense_1_2/Add/ReadVariableOp f4 [8]
0	0xc02378db	-2.5542514
1	0xbff960da	-1.9482682
2	0x3e9066b5	0.2820336
3	0xc043c25b	-3.0587375
4	0xbf1d5ffe	-0.614746
5	0x3fd6e98a	1.679002
6	0x3ff9c57e	1.9513395
7	0xbd44ee7e	-0.048079006

sequential_1/dense_1/Add/ReadVariableOp f4 [8]
0	0xbe8158ca	-0.25263053
1	0x00000000	0.0
2	0xbfbb2320	-1.4620094
3	0x3fb63d43	1.4237446
4	0xbf7f76d6	-0.99790704
5	0xbf60741d	-0.87677175
6	0x00000000	0.0
7	0xbf6afc43	-0.9179117

sequential_1/dense_1/MatMul f4 [8, 2]
0	0x3ded6bec	0.1159285
1	0xbe2258f1	-0.15854241
2	0xbeafefeb	-0.3436273
3	0xbe1884dc	-0.14894432
4	0x3efd180f	0.49432418
5	0xbe8322f3	-0.25612602
6	0x3f085f77	0.5327067
7	0xbf15756c	-0.58382297
8	0x3efc2814	0.49249327
9	0xbd3070e5	-0.043076415
10	0xbf2c4cd1	-0.6730471
11	0x3f3c26a6	0.7349647
12	0xbddc7758	-0.107649505
13	0xbf0366b6	-0.513286
14	0x3ebb5242	0.36586195
15	0x3d6808cf	0.056649026
